<?xml version="1.0"?>
<net name="torch_jit" version="11">
	<layers>
		<layer id="1" name="input_ids" type="Parameter" version="opset1">
			<data shape="?,?" element_type="i64" />
			<rt_info>
				<attribute name="fused_names" version="0" value="input_ids" />
			</rt_info>
			<output>
				<port id="0" precision="I64" names="input_ids">
					<dim>-1</dim>
					<dim>-1</dim>
				</port>
			</output>
		</layer>
		<layer id="0" name="attention_mask" type="Parameter" version="opset1">
			<data shape="?,?" element_type="i64" />
			<rt_info>
				<attribute name="fused_names" version="0" value="attention_mask" />
			</rt_info>
			<output>
				<port id="0" precision="I64" names="attention_mask">
					<dim>-1</dim>
					<dim>-1</dim>
				</port>
			</output>
		</layer>
		<layer id="2" name="qa_outputs.bias" type="Const" version="opset1">
			<data element_type="f32" shape="2" offset="0" size="8" />
			<rt_info>
				<attribute name="fused_names" version="0" value="qa_outputs.bias" />
			</rt_info>
			<output>
				<port id="0" precision="FP32" names="qa_outputs.bias">
					<dim>2</dim>
				</port>
			</output>
		</layer>
		<layer id="3" name="distilbert.transformer.layer.5.ffn.lin2.bias" type="Const" version="opset1">
			<data element_type="f32" shape="768" offset="8" size="3072" />
			<rt_info>
				<attribute name="fused_names" version="0" value="distilbert.transformer.layer.5.ffn.lin2.bias" />
			</rt_info>
			<output>
				<port id="0" precision="FP32" names="distilbert.transformer.layer.5.ffn.lin2.bias">
					<dim>768</dim>
				</port>
			</output>
		</layer>
		<layer id="4" name="distilbert.transformer.layer.5.ffn.lin1.bias" type="Const" version="opset1">
			<data element_type="f32" shape="3072" offset="3080" size="12288" />
			<rt_info>
				<attribute name="fused_names" version="0" value="distilbert.transformer.layer.5.ffn.lin1.bias" />
			</rt_info>
			<output>
				<port id="0" precision="FP32" names="distilbert.transformer.layer.5.ffn.lin1.bias">
					<dim>3072</dim>
				</port>
			</output>
		</layer>
		<layer id="5" name="distilbert.transformer.layer.5.attention.out_lin.bias" type="Const" version="opset1">
			<data element_type="f32" shape="768" offset="15368" size="3072" />
			<rt_info>
				<attribute name="fused_names" version="0" value="distilbert.transformer.layer.5.attention.out_lin.bias" />
			</rt_info>
			<output>
				<port id="0" precision="FP32" names="distilbert.transformer.layer.5.attention.out_lin.bias">
					<dim>768</dim>
				</port>
			</output>
		</layer>
		<layer id="6" name="/distilbert/transformer/layer.0/attention/Constant_12" type="Const" version="opset1">
			<data element_type="i64" shape="" offset="18440" size="8" />
			<rt_info>
				<attribute name="fused_names" version="0" value="/distilbert/transformer/layer.0/attention/Constant_12" />
			</rt_info>
			<output>
				<port id="0" precision="I64" names="/distilbert/transformer/layer.0/attention/Constant_12_output_0" />
			</output>
		</layer>
		<layer id="7" name="/distilbert/transformer/layer.0/attention/Equal" type="Equal" version="opset1">
			<data auto_broadcast="numpy" />
			<rt_info>
				<attribute name="fused_names" version="0" value="/distilbert/transformer/layer.0/attention/Equal" />
			</rt_info>
			<input>
				<port id="0" precision="I64">
					<dim>-1</dim>
					<dim>-1</dim>
				</port>
				<port id="1" precision="I64" />
			</input>
			<output>
				<port id="2" precision="BOOL" names="/distilbert/transformer/layer.0/attention/Equal_output_0">
					<dim>-1</dim>
					<dim>-1</dim>
				</port>
			</output>
		</layer>
		<layer id="8" name="distilbert.transformer.layer.4.ffn.lin2.bias" type="Const" version="opset1">
			<data element_type="f32" shape="768" offset="18448" size="3072" />
			<rt_info>
				<attribute name="fused_names" version="0" value="distilbert.transformer.layer.4.ffn.lin2.bias" />
			</rt_info>
			<output>
				<port id="0" precision="FP32" names="distilbert.transformer.layer.4.ffn.lin2.bias">
					<dim>768</dim>
				</port>
			</output>
		</layer>
		<layer id="9" name="distilbert.transformer.layer.4.ffn.lin1.bias" type="Const" version="opset1">
			<data element_type="f32" shape="3072" offset="21520" size="12288" />
			<rt_info>
				<attribute name="fused_names" version="0" value="distilbert.transformer.layer.4.ffn.lin1.bias" />
			</rt_info>
			<output>
				<port id="0" precision="FP32" names="distilbert.transformer.layer.4.ffn.lin1.bias">
					<dim>3072</dim>
				</port>
			</output>
		</layer>
		<layer id="10" name="distilbert.transformer.layer.4.attention.out_lin.bias" type="Const" version="opset1">
			<data element_type="f32" shape="768" offset="33808" size="3072" />
			<rt_info>
				<attribute name="fused_names" version="0" value="distilbert.transformer.layer.4.attention.out_lin.bias" />
			</rt_info>
			<output>
				<port id="0" precision="FP32" names="distilbert.transformer.layer.4.attention.out_lin.bias">
					<dim>768</dim>
				</port>
			</output>
		</layer>
		<layer id="11" name="distilbert.transformer.layer.3.ffn.lin2.bias" type="Const" version="opset1">
			<data element_type="f32" shape="768" offset="36880" size="3072" />
			<rt_info>
				<attribute name="fused_names" version="0" value="distilbert.transformer.layer.3.ffn.lin2.bias" />
			</rt_info>
			<output>
				<port id="0" precision="FP32" names="distilbert.transformer.layer.3.ffn.lin2.bias">
					<dim>768</dim>
				</port>
			</output>
		</layer>
		<layer id="12" name="distilbert.transformer.layer.3.ffn.lin1.bias" type="Const" version="opset1">
			<data element_type="f32" shape="3072" offset="39952" size="12288" />
			<rt_info>
				<attribute name="fused_names" version="0" value="distilbert.transformer.layer.3.ffn.lin1.bias" />
			</rt_info>
			<output>
				<port id="0" precision="FP32" names="distilbert.transformer.layer.3.ffn.lin1.bias">
					<dim>3072</dim>
				</port>
			</output>
		</layer>
		<layer id="13" name="distilbert.transformer.layer.3.attention.out_lin.bias" type="Const" version="opset1">
			<data element_type="f32" shape="768" offset="52240" size="3072" />
			<rt_info>
				<attribute name="fused_names" version="0" value="distilbert.transformer.layer.3.attention.out_lin.bias" />
			</rt_info>
			<output>
				<port id="0" precision="FP32" names="distilbert.transformer.layer.3.attention.out_lin.bias">
					<dim>768</dim>
				</port>
			</output>
		</layer>
		<layer id="14" name="distilbert.transformer.layer.2.ffn.lin2.bias" type="Const" version="opset1">
			<data element_type="f32" shape="768" offset="55312" size="3072" />
			<rt_info>
				<attribute name="fused_names" version="0" value="distilbert.transformer.layer.2.ffn.lin2.bias" />
			</rt_info>
			<output>
				<port id="0" precision="FP32" names="distilbert.transformer.layer.2.ffn.lin2.bias">
					<dim>768</dim>
				</port>
			</output>
		</layer>
		<layer id="15" name="distilbert.transformer.layer.2.ffn.lin1.bias" type="Const" version="opset1">
			<data element_type="f32" shape="3072" offset="58384" size="12288" />
			<rt_info>
				<attribute name="fused_names" version="0" value="distilbert.transformer.layer.2.ffn.lin1.bias" />
			</rt_info>
			<output>
				<port id="0" precision="FP32" names="distilbert.transformer.layer.2.ffn.lin1.bias">
					<dim>3072</dim>
				</port>
			</output>
		</layer>
		<layer id="16" name="distilbert.transformer.layer.2.attention.out_lin.bias" type="Const" version="opset1">
			<data element_type="f32" shape="768" offset="70672" size="3072" />
			<rt_info>
				<attribute name="fused_names" version="0" value="distilbert.transformer.layer.2.attention.out_lin.bias" />
			</rt_info>
			<output>
				<port id="0" precision="FP32" names="distilbert.transformer.layer.2.attention.out_lin.bias">
					<dim>768</dim>
				</port>
			</output>
		</layer>
		<layer id="17" name="distilbert.transformer.layer.1.ffn.lin2.bias" type="Const" version="opset1">
			<data element_type="f32" shape="768" offset="73744" size="3072" />
			<rt_info>
				<attribute name="fused_names" version="0" value="distilbert.transformer.layer.1.ffn.lin2.bias" />
			</rt_info>
			<output>
				<port id="0" precision="FP32" names="distilbert.transformer.layer.1.ffn.lin2.bias">
					<dim>768</dim>
				</port>
			</output>
		</layer>
		<layer id="18" name="distilbert.transformer.layer.1.ffn.lin1.bias" type="Const" version="opset1">
			<data element_type="f32" shape="3072" offset="76816" size="12288" />
			<rt_info>
				<attribute name="fused_names" version="0" value="distilbert.transformer.layer.1.ffn.lin1.bias" />
			</rt_info>
			<output>
				<port id="0" precision="FP32" names="distilbert.transformer.layer.1.ffn.lin1.bias">
					<dim>3072</dim>
				</port>
			</output>
		</layer>
		<layer id="19" name="distilbert.transformer.layer.1.attention.out_lin.bias" type="Const" version="opset1">
			<data element_type="f32" shape="768" offset="89104" size="3072" />
			<rt_info>
				<attribute name="fused_names" version="0" value="distilbert.transformer.layer.1.attention.out_lin.bias" />
			</rt_info>
			<output>
				<port id="0" precision="FP32" names="distilbert.transformer.layer.1.attention.out_lin.bias">
					<dim>768</dim>
				</port>
			</output>
		</layer>
		<layer id="20" name="distilbert.transformer.layer.0.ffn.lin2.bias" type="Const" version="opset1">
			<data element_type="f32" shape="768" offset="92176" size="3072" />
			<rt_info>
				<attribute name="fused_names" version="0" value="distilbert.transformer.layer.0.ffn.lin2.bias" />
			</rt_info>
			<output>
				<port id="0" precision="FP32" names="distilbert.transformer.layer.0.ffn.lin2.bias">
					<dim>768</dim>
				</port>
			</output>
		</layer>
		<layer id="21" name="distilbert.transformer.layer.0.ffn.lin1.bias" type="Const" version="opset1">
			<data element_type="f32" shape="3072" offset="95248" size="12288" />
			<rt_info>
				<attribute name="fused_names" version="0" value="distilbert.transformer.layer.0.ffn.lin1.bias" />
			</rt_info>
			<output>
				<port id="0" precision="FP32" names="distilbert.transformer.layer.0.ffn.lin1.bias">
					<dim>3072</dim>
				</port>
			</output>
		</layer>
		<layer id="22" name="distilbert.transformer.layer.0.attention.out_lin.bias" type="Const" version="opset1">
			<data element_type="f32" shape="768" offset="107536" size="3072" />
			<rt_info>
				<attribute name="fused_names" version="0" value="distilbert.transformer.layer.0.attention.out_lin.bias" />
			</rt_info>
			<output>
				<port id="0" precision="FP32" names="distilbert.transformer.layer.0.attention.out_lin.bias">
					<dim>768</dim>
				</port>
			</output>
		</layer>
		<layer id="23" name="distilbert.embeddings.word_embeddings.weight" type="Const" version="opset1">
			<data element_type="f32" shape="28996, 768" offset="110608" size="89075712" />
			<rt_info>
				<attribute name="fused_names" version="0" value="distilbert.embeddings.word_embeddings.weight" />
			</rt_info>
			<output>
				<port id="0" precision="FP32" names="distilbert.embeddings.word_embeddings.weight">
					<dim>28996</dim>
					<dim>768</dim>
				</port>
			</output>
		</layer>
		<layer id="24" name="Constant_255188" type="Const" version="opset1">
			<data element_type="i64" shape="" offset="18440" size="8" />
			<rt_info>
				<attribute name="fused_names" version="0" value="Constant_255188" />
			</rt_info>
			<output>
				<port id="0" precision="I64" />
			</output>
		</layer>
		<layer id="25" name="/distilbert/embeddings/word_embeddings/Gather" type="Gather" version="opset8">
			<data batch_dims="0" />
			<rt_info>
				<attribute name="fused_names" version="0" value="/distilbert/embeddings/word_embeddings/Gather" />
			</rt_info>
			<input>
				<port id="0" precision="FP32">
					<dim>28996</dim>
					<dim>768</dim>
				</port>
				<port id="1" precision="I64">
					<dim>-1</dim>
					<dim>-1</dim>
				</port>
				<port id="2" precision="I64" />
			</input>
			<output>
				<port id="3" precision="FP32" names="/distilbert/embeddings/word_embeddings/Gather_output_0">
					<dim>-1</dim>
					<dim>-1</dim>
					<dim>768</dim>
				</port>
			</output>
		</layer>
		<layer id="26" name="distilbert.embeddings.position_embeddings.weight" type="Const" version="opset1">
			<data element_type="f32" shape="512, 768" offset="89186320" size="1572864" />
			<rt_info>
				<attribute name="fused_names" version="0" value="distilbert.embeddings.position_embeddings.weight" />
			</rt_info>
			<output>
				<port id="0" precision="FP32" names="distilbert.embeddings.position_embeddings.weight">
					<dim>512</dim>
					<dim>768</dim>
				</port>
			</output>
		</layer>
		<layer id="27" name="Constant_4" type="Const" version="opset1">
			<data element_type="i64" shape="1, 512" offset="90759184" size="4096" />
			<rt_info>
				<attribute name="fused_names" version="0" value="Constant_4" />
			</rt_info>
			<output>
				<port id="0" precision="I64" names="onnx::Slice_110">
					<dim>1</dim>
					<dim>512</dim>
				</port>
			</output>
		</layer>
		<layer id="28" name="/distilbert/embeddings/Constant_1" type="Const" version="opset1">
			<data element_type="i64" shape="1" offset="18440" size="8" />
			<rt_info>
				<attribute name="fused_names" version="0" value="/distilbert/embeddings/Constant_1" />
			</rt_info>
			<output>
				<port id="0" precision="I64" names="/distilbert/embeddings/Constant_1_output_0">
					<dim>1</dim>
				</port>
			</output>
		</layer>
		<layer id="29" name="/distilbert/embeddings/Shape" type="ShapeOf" version="opset3">
			<data output_type="i64" />
			<rt_info>
				<attribute name="fused_names" version="0" value="/distilbert/embeddings/Shape" />
			</rt_info>
			<input>
				<port id="0" precision="FP32">
					<dim>-1</dim>
					<dim>-1</dim>
					<dim>768</dim>
				</port>
			</input>
			<output>
				<port id="1" precision="I64" names="/distilbert/embeddings/Shape_output_0">
					<dim>3</dim>
				</port>
			</output>
		</layer>
		<layer id="30" name="/distilbert/embeddings/Constant" type="Const" version="opset1">
			<data element_type="i64" shape="" offset="90763280" size="8" />
			<rt_info>
				<attribute name="fused_names" version="0" value="/distilbert/embeddings/Constant" />
			</rt_info>
			<output>
				<port id="0" precision="I64" names="/distilbert/embeddings/Constant_output_0" />
			</output>
		</layer>
		<layer id="31" name="Constant_255192" type="Const" version="opset1">
			<data element_type="i64" shape="" offset="18440" size="8" />
			<rt_info>
				<attribute name="fused_names" version="0" value="Constant_255192" />
			</rt_info>
			<output>
				<port id="0" precision="I64" />
			</output>
		</layer>
		<layer id="32" name="/distilbert/embeddings/Gather" type="Gather" version="opset8">
			<data batch_dims="0" />
			<rt_info>
				<attribute name="fused_names" version="0" value="/distilbert/embeddings/Constant, /distilbert/embeddings/Gather, Constant_255192" />
			</rt_info>
			<input>
				<port id="0" precision="I64">
					<dim>3</dim>
				</port>
				<port id="1" precision="I64" />
				<port id="2" precision="I64" />
			</input>
			<output>
				<port id="3" precision="I64" names="/distilbert/embeddings/Gather_output_0" />
			</output>
		</layer>
		<layer id="33" name="Constant_255196" type="Const" version="opset1">
			<data element_type="i64" shape="1" offset="18440" size="8" />
			<rt_info>
				<attribute name="fused_names" version="0" value="Constant_255196" />
			</rt_info>
			<output>
				<port id="0" precision="I64">
					<dim>1</dim>
				</port>
			</output>
		</layer>
		<layer id="34" name="/distilbert/embeddings/Unsqueeze" type="Unsqueeze" version="opset1">
			<rt_info>
				<attribute name="fused_names" version="0" value="/distilbert/embeddings/Unsqueeze, Constant_255196" />
			</rt_info>
			<input>
				<port id="0" precision="I64" />
				<port id="1" precision="I64">
					<dim>1</dim>
				</port>
			</input>
			<output>
				<port id="2" precision="I64" names="/distilbert/embeddings/Unsqueeze_output_0">
					<dim>1</dim>
				</port>
			</output>
		</layer>
		<layer id="35" name="/distilbert/embeddings/Constant_3" type="Const" version="opset1">
			<data element_type="i64" shape="1" offset="90763280" size="8" />
			<rt_info>
				<attribute name="fused_names" version="0" value="/distilbert/embeddings/Constant_3" />
			</rt_info>
			<output>
				<port id="0" precision="I64" names="/distilbert/embeddings/Constant_3_output_0">
					<dim>1</dim>
				</port>
			</output>
		</layer>
		<layer id="36" name="/distilbert/embeddings/Constant_2" type="Const" version="opset1">
			<data element_type="i64" shape="1" offset="90763280" size="8" />
			<rt_info>
				<attribute name="fused_names" version="0" value="/distilbert/embeddings/Constant_2" />
			</rt_info>
			<output>
				<port id="0" precision="I64" names="/distilbert/embeddings/Constant_2_output_0">
					<dim>1</dim>
				</port>
			</output>
		</layer>
		<layer id="37" name="/distilbert/embeddings/Slice" type="Slice" version="opset8">
			<rt_info>
				<attribute name="fused_names" version="0" value="/distilbert/embeddings/Slice" />
			</rt_info>
			<input>
				<port id="0" precision="I64">
					<dim>1</dim>
					<dim>512</dim>
				</port>
				<port id="1" precision="I64">
					<dim>1</dim>
				</port>
				<port id="2" precision="I64">
					<dim>1</dim>
				</port>
				<port id="3" precision="I64">
					<dim>1</dim>
				</port>
				<port id="4" precision="I64">
					<dim>1</dim>
				</port>
			</input>
			<output>
				<port id="5" precision="I64" names="/distilbert/embeddings/Slice_output_0">
					<dim>1</dim>
					<dim>-1</dim>
				</port>
			</output>
		</layer>
		<layer id="38" name="Constant_255207" type="Const" version="opset1">
			<data element_type="i64" shape="" offset="18440" size="8" />
			<rt_info>
				<attribute name="fused_names" version="0" value="Constant_255207" />
			</rt_info>
			<output>
				<port id="0" precision="I64" />
			</output>
		</layer>
		<layer id="39" name="/distilbert/embeddings/position_embeddings/Gather" type="Gather" version="opset8">
			<data batch_dims="0" />
			<rt_info>
				<attribute name="fused_names" version="0" value="/distilbert/embeddings/position_embeddings/Gather" />
			</rt_info>
			<input>
				<port id="0" precision="FP32">
					<dim>512</dim>
					<dim>768</dim>
				</port>
				<port id="1" precision="I64">
					<dim>1</dim>
					<dim>-1</dim>
				</port>
				<port id="2" precision="I64" />
			</input>
			<output>
				<port id="3" precision="FP32" names="/distilbert/embeddings/position_embeddings/Gather_output_0">
					<dim>1</dim>
					<dim>-1</dim>
					<dim>768</dim>
				</port>
			</output>
		</layer>
		<layer id="40" name="/distilbert/embeddings/Add" type="Add" version="opset1">
			<data auto_broadcast="numpy" />
			<rt_info>
				<attribute name="fused_names" version="0" value="/distilbert/embeddings/Add" />
			</rt_info>
			<input>
				<port id="0" precision="FP32">
					<dim>-1</dim>
					<dim>-1</dim>
					<dim>768</dim>
				</port>
				<port id="1" precision="FP32">
					<dim>1</dim>
					<dim>-1</dim>
					<dim>768</dim>
				</port>
			</input>
			<output>
				<port id="2" precision="FP32" names="/distilbert/embeddings/Add_output_0">
					<dim>-1</dim>
					<dim>-1</dim>
					<dim>768</dim>
				</port>
			</output>
		</layer>
		<layer id="41" name="Constant_255210" type="Const" version="opset1">
			<data element_type="i64" shape="1" offset="90763288" size="8" />
			<rt_info>
				<attribute name="fused_names" version="0" value="Constant_255210" />
			</rt_info>
			<output>
				<port id="0" precision="I64">
					<dim>1</dim>
				</port>
			</output>
		</layer>
		<layer id="42" name="/distilbert/embeddings/LayerNorm/ReduceMean" type="ReduceMean" version="opset1">
			<data keep_dims="true" />
			<rt_info>
				<attribute name="fused_names" version="0" value="/distilbert/embeddings/LayerNorm/ReduceMean" />
			</rt_info>
			<input>
				<port id="0" precision="FP32">
					<dim>-1</dim>
					<dim>-1</dim>
					<dim>768</dim>
				</port>
				<port id="1" precision="I64">
					<dim>1</dim>
				</port>
			</input>
			<output>
				<port id="2" precision="FP32" names="/distilbert/embeddings/LayerNorm/ReduceMean_output_0">
					<dim>-1</dim>
					<dim>-1</dim>
					<dim>1</dim>
				</port>
			</output>
		</layer>
		<layer id="43" name="/distilbert/embeddings/LayerNorm/Sub" type="Subtract" version="opset1">
			<data auto_broadcast="numpy" />
			<rt_info>
				<attribute name="fused_names" version="0" value="/distilbert/embeddings/LayerNorm/Sub" />
			</rt_info>
			<input>
				<port id="0" precision="FP32">
					<dim>-1</dim>
					<dim>-1</dim>
					<dim>768</dim>
				</port>
				<port id="1" precision="FP32">
					<dim>-1</dim>
					<dim>-1</dim>
					<dim>1</dim>
				</port>
			</input>
			<output>
				<port id="2" precision="FP32" names="/distilbert/embeddings/LayerNorm/Sub_output_0">
					<dim>-1</dim>
					<dim>-1</dim>
					<dim>768</dim>
				</port>
			</output>
		</layer>
		<layer id="44" name="/distilbert/embeddings/LayerNorm/Constant" type="Const" version="opset1">
			<data element_type="f32" shape="" offset="90763296" size="4" />
			<rt_info>
				<attribute name="fused_names" version="0" value="/distilbert/embeddings/LayerNorm/Constant" />
			</rt_info>
			<output>
				<port id="0" precision="FP32" names="/distilbert/embeddings/LayerNorm/Constant_output_0" />
			</output>
		</layer>
		<layer id="45" name="/distilbert/embeddings/LayerNorm/Pow" type="Power" version="opset1">
			<data auto_broadcast="numpy" />
			<rt_info>
				<attribute name="fused_names" version="0" value="/distilbert/embeddings/LayerNorm/Pow" />
			</rt_info>
			<input>
				<port id="0" precision="FP32">
					<dim>-1</dim>
					<dim>-1</dim>
					<dim>768</dim>
				</port>
				<port id="1" precision="FP32" />
			</input>
			<output>
				<port id="2" precision="FP32" names="/distilbert/embeddings/LayerNorm/Pow_output_0">
					<dim>-1</dim>
					<dim>-1</dim>
					<dim>768</dim>
				</port>
			</output>
		</layer>
		<layer id="46" name="Constant_255215" type="Const" version="opset1">
			<data element_type="i64" shape="1" offset="90763288" size="8" />
			<rt_info>
				<attribute name="fused_names" version="0" value="Constant_255215" />
			</rt_info>
			<output>
				<port id="0" precision="I64">
					<dim>1</dim>
				</port>
			</output>
		</layer>
		<layer id="47" name="/distilbert/embeddings/LayerNorm/ReduceMean_1" type="ReduceMean" version="opset1">
			<data keep_dims="true" />
			<rt_info>
				<attribute name="fused_names" version="0" value="/distilbert/embeddings/LayerNorm/ReduceMean_1" />
			</rt_info>
			<input>
				<port id="0" precision="FP32">
					<dim>-1</dim>
					<dim>-1</dim>
					<dim>768</dim>
				</port>
				<port id="1" precision="I64">
					<dim>1</dim>
				</port>
			</input>
			<output>
				<port id="2" precision="FP32" names="/distilbert/embeddings/LayerNorm/ReduceMean_1_output_0">
					<dim>-1</dim>
					<dim>-1</dim>
					<dim>1</dim>
				</port>
			</output>
		</layer>
		<layer id="48" name="/distilbert/embeddings/LayerNorm/Constant_1" type="Const" version="opset1">
			<data element_type="f32" shape="" offset="90763300" size="4" />
			<rt_info>
				<attribute name="fused_names" version="0" value="/distilbert/embeddings/LayerNorm/Constant_1" />
			</rt_info>
			<output>
				<port id="0" precision="FP32" names="/distilbert/embeddings/LayerNorm/Constant_1_output_0" />
			</output>
		</layer>
		<layer id="49" name="/distilbert/embeddings/LayerNorm/Add" type="Add" version="opset1">
			<data auto_broadcast="numpy" />
			<rt_info>
				<attribute name="fused_names" version="0" value="/distilbert/embeddings/LayerNorm/Add" />
			</rt_info>
			<input>
				<port id="0" precision="FP32">
					<dim>-1</dim>
					<dim>-1</dim>
					<dim>1</dim>
				</port>
				<port id="1" precision="FP32" />
			</input>
			<output>
				<port id="2" precision="FP32" names="/distilbert/embeddings/LayerNorm/Add_output_0">
					<dim>-1</dim>
					<dim>-1</dim>
					<dim>1</dim>
				</port>
			</output>
		</layer>
		<layer id="50" name="/distilbert/embeddings/LayerNorm/Sqrt" type="Sqrt" version="opset1">
			<rt_info>
				<attribute name="fused_names" version="0" value="/distilbert/embeddings/LayerNorm/Sqrt" />
			</rt_info>
			<input>
				<port id="0" precision="FP32">
					<dim>-1</dim>
					<dim>-1</dim>
					<dim>1</dim>
				</port>
			</input>
			<output>
				<port id="1" precision="FP32" names="/distilbert/embeddings/LayerNorm/Sqrt_output_0">
					<dim>-1</dim>
					<dim>-1</dim>
					<dim>1</dim>
				</port>
			</output>
		</layer>
		<layer id="51" name="/distilbert/embeddings/LayerNorm/Div" type="Divide" version="opset1">
			<data auto_broadcast="numpy" m_pythondiv="true" />
			<rt_info>
				<attribute name="fused_names" version="0" value="/distilbert/embeddings/LayerNorm/Div" />
			</rt_info>
			<input>
				<port id="0" precision="FP32">
					<dim>-1</dim>
					<dim>-1</dim>
					<dim>768</dim>
				</port>
				<port id="1" precision="FP32">
					<dim>-1</dim>
					<dim>-1</dim>
					<dim>1</dim>
				</port>
			</input>
			<output>
				<port id="2" precision="FP32" names="/distilbert/embeddings/LayerNorm/Div_output_0">
					<dim>-1</dim>
					<dim>-1</dim>
					<dim>768</dim>
				</port>
			</output>
		</layer>
		<layer id="52" name="distilbert.embeddings.LayerNorm.weight" type="Const" version="opset1">
			<data element_type="f32" shape="768" offset="90763304" size="3072" />
			<rt_info>
				<attribute name="fused_names" version="0" value="distilbert.embeddings.LayerNorm.weight" />
			</rt_info>
			<output>
				<port id="0" precision="FP32" names="distilbert.embeddings.LayerNorm.weight">
					<dim>768</dim>
				</port>
			</output>
		</layer>
		<layer id="53" name="/distilbert/embeddings/LayerNorm/Mul" type="Multiply" version="opset1">
			<data auto_broadcast="numpy" />
			<rt_info>
				<attribute name="fused_names" version="0" value="/distilbert/embeddings/LayerNorm/Mul" />
			</rt_info>
			<input>
				<port id="0" precision="FP32">
					<dim>-1</dim>
					<dim>-1</dim>
					<dim>768</dim>
				</port>
				<port id="1" precision="FP32">
					<dim>768</dim>
				</port>
			</input>
			<output>
				<port id="2" precision="FP32" names="/distilbert/embeddings/LayerNorm/Mul_output_0">
					<dim>-1</dim>
					<dim>-1</dim>
					<dim>768</dim>
				</port>
			</output>
		</layer>
		<layer id="54" name="distilbert.embeddings.LayerNorm.bias" type="Const" version="opset1">
			<data element_type="f32" shape="768" offset="90766376" size="3072" />
			<rt_info>
				<attribute name="fused_names" version="0" value="distilbert.embeddings.LayerNorm.bias" />
			</rt_info>
			<output>
				<port id="0" precision="FP32" names="distilbert.embeddings.LayerNorm.bias">
					<dim>768</dim>
				</port>
			</output>
		</layer>
		<layer id="55" name="/distilbert/embeddings/LayerNorm/Add_1" type="Add" version="opset1">
			<data auto_broadcast="numpy" />
			<rt_info>
				<attribute name="fused_names" version="0" value="/distilbert/embeddings/LayerNorm/Add_1" />
			</rt_info>
			<input>
				<port id="0" precision="FP32">
					<dim>-1</dim>
					<dim>-1</dim>
					<dim>768</dim>
				</port>
				<port id="1" precision="FP32">
					<dim>768</dim>
				</port>
			</input>
			<output>
				<port id="2" precision="FP32" names="/distilbert/embeddings/LayerNorm/Add_1_output_0">
					<dim>-1</dim>
					<dim>-1</dim>
					<dim>768</dim>
				</port>
			</output>
		</layer>
		<layer id="56" name="/distilbert/transformer/layer.0/attention/Shape" type="ShapeOf" version="opset3">
			<data output_type="i64" />
			<rt_info>
				<attribute name="fused_names" version="0" value="/distilbert/transformer/layer.0/attention/Shape" />
			</rt_info>
			<input>
				<port id="0" precision="FP32">
					<dim>-1</dim>
					<dim>-1</dim>
					<dim>768</dim>
				</port>
			</input>
			<output>
				<port id="1" precision="I64" names="/distilbert/transformer/layer.0/attention/Shape_output_0">
					<dim>3</dim>
				</port>
			</output>
		</layer>
		<layer id="57" name="/distilbert/transformer/layer.0/attention/Constant" type="Const" version="opset1">
			<data element_type="i64" shape="" offset="18440" size="8" />
			<rt_info>
				<attribute name="fused_names" version="0" value="/distilbert/transformer/layer.0/attention/Constant" />
			</rt_info>
			<output>
				<port id="0" precision="I64" names="/distilbert/transformer/layer.0/attention/Constant_output_0" />
			</output>
		</layer>
		<layer id="58" name="Constant_255225" type="Const" version="opset1">
			<data element_type="i64" shape="" offset="18440" size="8" />
			<rt_info>
				<attribute name="fused_names" version="0" value="Constant_255225" />
			</rt_info>
			<output>
				<port id="0" precision="I64" />
			</output>
		</layer>
		<layer id="59" name="/distilbert/transformer/layer.0/attention/Gather" type="Gather" version="opset8">
			<data batch_dims="0" />
			<rt_info>
				<attribute name="fused_names" version="0" value="/distilbert/transformer/layer.0/attention/Constant, /distilbert/transformer/layer.0/attention/Gather, Constant_255225" />
			</rt_info>
			<input>
				<port id="0" precision="I64">
					<dim>3</dim>
				</port>
				<port id="1" precision="I64" />
				<port id="2" precision="I64" />
			</input>
			<output>
				<port id="3" precision="I64" names="/distilbert/transformer/layer.0/attention/Gather_output_0" />
			</output>
		</layer>
		<layer id="60" name="Constant_255287" type="Const" version="opset1">
			<data element_type="i64" shape="1" offset="18440" size="8" />
			<rt_info>
				<attribute name="fused_names" version="0" value="Constant_255287" />
			</rt_info>
			<output>
				<port id="0" precision="I64">
					<dim>1</dim>
				</port>
			</output>
		</layer>
		<layer id="61" name="/distilbert/transformer/layer.0/attention/Unsqueeze_3" type="Unsqueeze" version="opset1">
			<rt_info>
				<attribute name="fused_names" version="0" value="/distilbert/transformer/layer.0/attention/Unsqueeze_3, Constant_255287" />
			</rt_info>
			<input>
				<port id="0" precision="I64" />
				<port id="1" precision="I64">
					<dim>1</dim>
				</port>
			</input>
			<output>
				<port id="2" precision="I64" names="/distilbert/transformer/layer.0/attention/Unsqueeze_3_output_0">
					<dim>1</dim>
				</port>
			</output>
		</layer>
		<layer id="62" name="/distilbert/transformer/layer.0/attention/Constant_13" type="Const" version="opset1">
			<data element_type="i64" shape="1" offset="90763280" size="8" />
			<rt_info>
				<attribute name="fused_names" version="0" value="/distilbert/transformer/layer.0/attention/Constant_13" />
			</rt_info>
			<output>
				<port id="0" precision="I64" names="/distilbert/transformer/layer.0/attention/Constant_13_output_0">
					<dim>1</dim>
				</port>
			</output>
		</layer>
		<layer id="63" name="/distilbert/transformer/layer.0/attention/Constant_14" type="Const" version="opset1">
			<data element_type="i64" shape="1" offset="90763280" size="8" />
			<rt_info>
				<attribute name="fused_names" version="0" value="/distilbert/transformer/layer.0/attention/Constant_14" />
			</rt_info>
			<output>
				<port id="0" precision="I64" names="/distilbert/transformer/layer.0/attention/Constant_14_output_0">
					<dim>1</dim>
				</port>
			</output>
		</layer>
		<layer id="64" name="/distilbert/transformer/layer.0/attention/Shape_1" type="ShapeOf" version="opset3">
			<data output_type="i64" />
			<rt_info>
				<attribute name="fused_names" version="0" value="/distilbert/transformer/layer.0/attention/Shape_1" />
			</rt_info>
			<input>
				<port id="0" precision="FP32">
					<dim>-1</dim>
					<dim>-1</dim>
					<dim>768</dim>
				</port>
			</input>
			<output>
				<port id="1" precision="I64" names="/distilbert/transformer/layer.0/attention/Shape_1_output_0">
					<dim>3</dim>
				</port>
			</output>
		</layer>
		<layer id="65" name="/distilbert/transformer/layer.0/attention/Constant_1" type="Const" version="opset1">
			<data element_type="i64" shape="" offset="90763280" size="8" />
			<rt_info>
				<attribute name="fused_names" version="0" value="/distilbert/transformer/layer.0/attention/Constant_1" />
			</rt_info>
			<output>
				<port id="0" precision="I64" names="/distilbert/transformer/layer.0/attention/Constant_1_output_0" />
			</output>
		</layer>
		<layer id="66" name="Constant_255229" type="Const" version="opset1">
			<data element_type="i64" shape="" offset="18440" size="8" />
			<rt_info>
				<attribute name="fused_names" version="0" value="Constant_255229" />
			</rt_info>
			<output>
				<port id="0" precision="I64" />
			</output>
		</layer>
		<layer id="67" name="/distilbert/transformer/layer.0/attention/Gather_1" type="Gather" version="opset8">
			<data batch_dims="0" />
			<rt_info>
				<attribute name="fused_names" version="0" value="/distilbert/transformer/layer.0/attention/Constant_1, /distilbert/transformer/layer.0/attention/Gather_1, Constant_255229" />
			</rt_info>
			<input>
				<port id="0" precision="I64">
					<dim>3</dim>
				</port>
				<port id="1" precision="I64" />
				<port id="2" precision="I64" />
			</input>
			<output>
				<port id="3" precision="I64" names="/distilbert/transformer/layer.0/attention/Gather_1_output_0" />
			</output>
		</layer>
		<layer id="68" name="Constant_255291" type="Const" version="opset1">
			<data element_type="i64" shape="1" offset="18440" size="8" />
			<rt_info>
				<attribute name="fused_names" version="0" value="Constant_255291" />
			</rt_info>
			<output>
				<port id="0" precision="I64">
					<dim>1</dim>
				</port>
			</output>
		</layer>
		<layer id="69" name="/distilbert/transformer/layer.0/attention/Unsqueeze_4" type="Unsqueeze" version="opset1">
			<rt_info>
				<attribute name="fused_names" version="0" value="/distilbert/transformer/layer.0/attention/Unsqueeze_4, Constant_255291" />
			</rt_info>
			<input>
				<port id="0" precision="I64" />
				<port id="1" precision="I64">
					<dim>1</dim>
				</port>
			</input>
			<output>
				<port id="2" precision="I64" names="/distilbert/transformer/layer.0/attention/Unsqueeze_4_output_0">
					<dim>1</dim>
				</port>
			</output>
		</layer>
		<layer id="70" name="/distilbert/transformer/layer.0/attention/Concat_3" type="Concat" version="opset1">
			<data axis="0" />
			<rt_info>
				<attribute name="fused_names" version="0" value="/distilbert/transformer/layer.0/attention/Concat_3, /distilbert/transformer/layer.0/attention/Constant_13, /distilbert/transformer/layer.0/attention/Constant_14" />
			</rt_info>
			<input>
				<port id="0" precision="I64">
					<dim>1</dim>
				</port>
				<port id="1" precision="I64">
					<dim>1</dim>
				</port>
				<port id="2" precision="I64">
					<dim>1</dim>
				</port>
				<port id="3" precision="I64">
					<dim>1</dim>
				</port>
			</input>
			<output>
				<port id="4" precision="I64" names="/distilbert/transformer/layer.0/attention/Concat_3_output_0">
					<dim>4</dim>
				</port>
			</output>
		</layer>
		<layer id="71" name="/distilbert/transformer/layer.0/attention/Reshape_3" type="Reshape" version="opset1">
			<data special_zero="true" />
			<rt_info>
				<attribute name="fused_names" version="0" value="/distilbert/transformer/layer.0/attention/Reshape_3" />
			</rt_info>
			<input>
				<port id="0" precision="BOOL">
					<dim>-1</dim>
					<dim>-1</dim>
				</port>
				<port id="1" precision="I64">
					<dim>4</dim>
				</port>
			</input>
			<output>
				<port id="2" precision="BOOL" names="/distilbert/transformer/layer.0/attention/Reshape_3_output_0">
					<dim>-1</dim>
					<dim>1</dim>
					<dim>1</dim>
					<dim>-1</dim>
				</port>
			</output>
		</layer>
		<layer id="72" name="distilbert.transformer.layer.0.attention.q_lin.bias" type="Const" version="opset1">
			<data element_type="f32" shape="768" offset="90769448" size="3072" />
			<rt_info>
				<attribute name="fused_names" version="0" value="distilbert.transformer.layer.0.attention.q_lin.bias" />
			</rt_info>
			<output>
				<port id="0" precision="FP32" names="distilbert.transformer.layer.0.attention.q_lin.bias">
					<dim>768</dim>
				</port>
			</output>
		</layer>
		<layer id="73" name="onnx::MatMul_738" type="Const" version="opset1">
			<data element_type="f32" shape="768, 768" offset="90772520" size="2359296" />
			<rt_info>
				<attribute name="fused_names" version="0" value="onnx::MatMul_738" />
			</rt_info>
			<output>
				<port id="0" precision="FP32" names="onnx::MatMul_738">
					<dim>768</dim>
					<dim>768</dim>
				</port>
			</output>
		</layer>
		<layer id="74" name="/distilbert/transformer/layer.0/attention/q_lin/MatMul" type="MatMul" version="opset1">
			<data transpose_a="false" transpose_b="false" />
			<rt_info>
				<attribute name="fused_names" version="0" value="/distilbert/transformer/layer.0/attention/q_lin/MatMul" />
			</rt_info>
			<input>
				<port id="0" precision="FP32">
					<dim>-1</dim>
					<dim>-1</dim>
					<dim>768</dim>
				</port>
				<port id="1" precision="FP32">
					<dim>768</dim>
					<dim>768</dim>
				</port>
			</input>
			<output>
				<port id="2" precision="FP32" names="/distilbert/transformer/layer.0/attention/q_lin/MatMul_output_0">
					<dim>-1</dim>
					<dim>-1</dim>
					<dim>768</dim>
				</port>
			</output>
		</layer>
		<layer id="75" name="/distilbert/transformer/layer.0/attention/q_lin/Add" type="Add" version="opset1">
			<data auto_broadcast="numpy" />
			<rt_info>
				<attribute name="fused_names" version="0" value="/distilbert/transformer/layer.0/attention/q_lin/Add" />
			</rt_info>
			<input>
				<port id="0" precision="FP32">
					<dim>768</dim>
				</port>
				<port id="1" precision="FP32">
					<dim>-1</dim>
					<dim>-1</dim>
					<dim>768</dim>
				</port>
			</input>
			<output>
				<port id="2" precision="FP32" names="/distilbert/transformer/layer.0/attention/q_lin/Add_output_0">
					<dim>-1</dim>
					<dim>-1</dim>
					<dim>768</dim>
				</port>
			</output>
		</layer>
		<layer id="76" name="Constant_255233" type="Const" version="opset1">
			<data element_type="i64" shape="1" offset="18440" size="8" />
			<rt_info>
				<attribute name="fused_names" version="0" value="Constant_255233" />
			</rt_info>
			<output>
				<port id="0" precision="I64">
					<dim>1</dim>
				</port>
			</output>
		</layer>
		<layer id="77" name="/distilbert/transformer/layer.0/attention/Unsqueeze" type="Unsqueeze" version="opset1">
			<rt_info>
				<attribute name="fused_names" version="0" value="/distilbert/transformer/layer.0/attention/Unsqueeze, Constant_255233" />
			</rt_info>
			<input>
				<port id="0" precision="I64" />
				<port id="1" precision="I64">
					<dim>1</dim>
				</port>
			</input>
			<output>
				<port id="2" precision="I64" names="/distilbert/transformer/layer.0/attention/Unsqueeze_output_0">
					<dim>1</dim>
				</port>
			</output>
		</layer>
		<layer id="78" name="/distilbert/transformer/layer.0/attention/Constant_2" type="Const" version="opset1">
			<data element_type="i64" shape="1" offset="90763288" size="8" />
			<rt_info>
				<attribute name="fused_names" version="0" value="/distilbert/transformer/layer.0/attention/Constant_2" />
			</rt_info>
			<output>
				<port id="0" precision="I64" names="/distilbert/transformer/layer.0/attention/Constant_2_output_0">
					<dim>1</dim>
				</port>
			</output>
		</layer>
		<layer id="79" name="/distilbert/transformer/layer.0/attention/Constant_3" type="Const" version="opset1">
			<data element_type="i64" shape="1" offset="93131816" size="8" />
			<rt_info>
				<attribute name="fused_names" version="0" value="/distilbert/transformer/layer.0/attention/Constant_3" />
			</rt_info>
			<output>
				<port id="0" precision="I64" names="/distilbert/transformer/layer.0/attention/Constant_3_output_0">
					<dim>1</dim>
				</port>
			</output>
		</layer>
		<layer id="80" name="/distilbert/transformer/layer.0/attention/Constant_4" type="Const" version="opset1">
			<data element_type="i64" shape="1" offset="93131824" size="8" />
			<rt_info>
				<attribute name="fused_names" version="0" value="/distilbert/transformer/layer.0/attention/Constant_4" />
			</rt_info>
			<output>
				<port id="0" precision="I64" names="/distilbert/transformer/layer.0/attention/Constant_4_output_0">
					<dim>1</dim>
				</port>
			</output>
		</layer>
		<layer id="81" name="/distilbert/transformer/layer.0/attention/Concat" type="Concat" version="opset1">
			<data axis="0" />
			<rt_info>
				<attribute name="fused_names" version="0" value="/distilbert/transformer/layer.0/attention/Concat, /distilbert/transformer/layer.0/attention/Constant_2, /distilbert/transformer/layer.0/attention/Constant_3, /distilbert/transformer/layer.0/attention/Constant_4" />
			</rt_info>
			<input>
				<port id="0" precision="I64">
					<dim>1</dim>
				</port>
				<port id="1" precision="I64">
					<dim>1</dim>
				</port>
				<port id="2" precision="I64">
					<dim>1</dim>
				</port>
				<port id="3" precision="I64">
					<dim>1</dim>
				</port>
			</input>
			<output>
				<port id="4" precision="I64" names="/distilbert/transformer/layer.0/attention/Concat_output_0">
					<dim>4</dim>
				</port>
			</output>
		</layer>
		<layer id="82" name="/distilbert/transformer/layer.0/attention/Reshape" type="Reshape" version="opset1">
			<data special_zero="true" />
			<rt_info>
				<attribute name="fused_names" version="0" value="/distilbert/transformer/layer.0/attention/Reshape" />
			</rt_info>
			<input>
				<port id="0" precision="FP32">
					<dim>-1</dim>
					<dim>-1</dim>
					<dim>768</dim>
				</port>
				<port id="1" precision="I64">
					<dim>4</dim>
				</port>
			</input>
			<output>
				<port id="2" precision="FP32" names="/distilbert/transformer/layer.0/attention/Reshape_output_0">
					<dim>-1</dim>
					<dim>-1</dim>
					<dim>12</dim>
					<dim>64</dim>
				</port>
			</output>
		</layer>
		<layer id="83" name="Constant_255258" type="Const" version="opset1">
			<data element_type="i64" shape="4" offset="93131832" size="32" />
			<rt_info>
				<attribute name="fused_names" version="0" value="Constant_255258" />
			</rt_info>
			<output>
				<port id="0" precision="I64">
					<dim>4</dim>
				</port>
			</output>
		</layer>
		<layer id="84" name="/distilbert/transformer/layer.0/attention/Transpose" type="Transpose" version="opset1">
			<rt_info>
				<attribute name="fused_names" version="0" value="/distilbert/transformer/layer.0/attention/Transpose" />
			</rt_info>
			<input>
				<port id="0" precision="FP32">
					<dim>-1</dim>
					<dim>-1</dim>
					<dim>12</dim>
					<dim>64</dim>
				</port>
				<port id="1" precision="I64">
					<dim>4</dim>
				</port>
			</input>
			<output>
				<port id="2" precision="FP32" names="/distilbert/transformer/layer.0/attention/Transpose_output_0">
					<dim>-1</dim>
					<dim>12</dim>
					<dim>-1</dim>
					<dim>64</dim>
				</port>
			</output>
		</layer>
		<layer id="85" name="/distilbert/transformer/layer.0/attention/Constant_11" type="Const" version="opset1">
			<data element_type="f32" shape="" offset="93131864" size="4" />
			<rt_info>
				<attribute name="fused_names" version="0" value="/distilbert/transformer/layer.0/attention/Constant_11" />
			</rt_info>
			<output>
				<port id="0" precision="FP32" names="/distilbert/transformer/layer.0/attention/Constant_11_output_0" />
			</output>
		</layer>
		<layer id="86" name="/distilbert/transformer/layer.0/attention/Div" type="Divide" version="opset1">
			<data auto_broadcast="numpy" m_pythondiv="true" />
			<rt_info>
				<attribute name="fused_names" version="0" value="/distilbert/transformer/layer.0/attention/Div" />
			</rt_info>
			<input>
				<port id="0" precision="FP32">
					<dim>-1</dim>
					<dim>12</dim>
					<dim>-1</dim>
					<dim>64</dim>
				</port>
				<port id="1" precision="FP32" />
			</input>
			<output>
				<port id="2" precision="FP32" names="/distilbert/transformer/layer.0/attention/Div_output_0">
					<dim>-1</dim>
					<dim>12</dim>
					<dim>-1</dim>
					<dim>64</dim>
				</port>
			</output>
		</layer>
		<layer id="87" name="distilbert.transformer.layer.0.attention.k_lin.bias" type="Const" version="opset1">
			<data element_type="f32" shape="768" offset="93131868" size="3072" />
			<rt_info>
				<attribute name="fused_names" version="0" value="distilbert.transformer.layer.0.attention.k_lin.bias" />
			</rt_info>
			<output>
				<port id="0" precision="FP32" names="distilbert.transformer.layer.0.attention.k_lin.bias">
					<dim>768</dim>
				</port>
			</output>
		</layer>
		<layer id="88" name="onnx::MatMul_748" type="Const" version="opset1">
			<data element_type="f32" shape="768, 768" offset="93134940" size="2359296" />
			<rt_info>
				<attribute name="fused_names" version="0" value="onnx::MatMul_748" />
			</rt_info>
			<output>
				<port id="0" precision="FP32" names="onnx::MatMul_748">
					<dim>768</dim>
					<dim>768</dim>
				</port>
			</output>
		</layer>
		<layer id="89" name="/distilbert/transformer/layer.0/attention/k_lin/MatMul" type="MatMul" version="opset1">
			<data transpose_a="false" transpose_b="false" />
			<rt_info>
				<attribute name="fused_names" version="0" value="/distilbert/transformer/layer.0/attention/k_lin/MatMul" />
			</rt_info>
			<input>
				<port id="0" precision="FP32">
					<dim>-1</dim>
					<dim>-1</dim>
					<dim>768</dim>
				</port>
				<port id="1" precision="FP32">
					<dim>768</dim>
					<dim>768</dim>
				</port>
			</input>
			<output>
				<port id="2" precision="FP32" names="/distilbert/transformer/layer.0/attention/k_lin/MatMul_output_0">
					<dim>-1</dim>
					<dim>-1</dim>
					<dim>768</dim>
				</port>
			</output>
		</layer>
		<layer id="90" name="/distilbert/transformer/layer.0/attention/k_lin/Add" type="Add" version="opset1">
			<data auto_broadcast="numpy" />
			<rt_info>
				<attribute name="fused_names" version="0" value="/distilbert/transformer/layer.0/attention/k_lin/Add" />
			</rt_info>
			<input>
				<port id="0" precision="FP32">
					<dim>768</dim>
				</port>
				<port id="1" precision="FP32">
					<dim>-1</dim>
					<dim>-1</dim>
					<dim>768</dim>
				</port>
			</input>
			<output>
				<port id="2" precision="FP32" names="/distilbert/transformer/layer.0/attention/k_lin/Add_output_0">
					<dim>-1</dim>
					<dim>-1</dim>
					<dim>768</dim>
				</port>
			</output>
		</layer>
		<layer id="91" name="Constant_255239" type="Const" version="opset1">
			<data element_type="i64" shape="1" offset="18440" size="8" />
			<rt_info>
				<attribute name="fused_names" version="0" value="Constant_255239" />
			</rt_info>
			<output>
				<port id="0" precision="I64">
					<dim>1</dim>
				</port>
			</output>
		</layer>
		<layer id="92" name="/distilbert/transformer/layer.0/attention/Unsqueeze_1" type="Unsqueeze" version="opset1">
			<rt_info>
				<attribute name="fused_names" version="0" value="/distilbert/transformer/layer.0/attention/Unsqueeze_1, Constant_255239" />
			</rt_info>
			<input>
				<port id="0" precision="I64" />
				<port id="1" precision="I64">
					<dim>1</dim>
				</port>
			</input>
			<output>
				<port id="2" precision="I64" names="/distilbert/transformer/layer.0/attention/Unsqueeze_1_output_0">
					<dim>1</dim>
				</port>
			</output>
		</layer>
		<layer id="93" name="/distilbert/transformer/layer.0/attention/Constant_5" type="Const" version="opset1">
			<data element_type="i64" shape="1" offset="90763288" size="8" />
			<rt_info>
				<attribute name="fused_names" version="0" value="/distilbert/transformer/layer.0/attention/Constant_5" />
			</rt_info>
			<output>
				<port id="0" precision="I64" names="/distilbert/transformer/layer.0/attention/Constant_5_output_0">
					<dim>1</dim>
				</port>
			</output>
		</layer>
		<layer id="94" name="/distilbert/transformer/layer.0/attention/Constant_6" type="Const" version="opset1">
			<data element_type="i64" shape="1" offset="93131816" size="8" />
			<rt_info>
				<attribute name="fused_names" version="0" value="/distilbert/transformer/layer.0/attention/Constant_6" />
			</rt_info>
			<output>
				<port id="0" precision="I64" names="/distilbert/transformer/layer.0/attention/Constant_6_output_0">
					<dim>1</dim>
				</port>
			</output>
		</layer>
		<layer id="95" name="/distilbert/transformer/layer.0/attention/Constant_7" type="Const" version="opset1">
			<data element_type="i64" shape="1" offset="93131824" size="8" />
			<rt_info>
				<attribute name="fused_names" version="0" value="/distilbert/transformer/layer.0/attention/Constant_7" />
			</rt_info>
			<output>
				<port id="0" precision="I64" names="/distilbert/transformer/layer.0/attention/Constant_7_output_0">
					<dim>1</dim>
				</port>
			</output>
		</layer>
		<layer id="96" name="/distilbert/transformer/layer.0/attention/Concat_1" type="Concat" version="opset1">
			<data axis="0" />
			<rt_info>
				<attribute name="fused_names" version="0" value="/distilbert/transformer/layer.0/attention/Concat_1, /distilbert/transformer/layer.0/attention/Constant_5, /distilbert/transformer/layer.0/attention/Constant_6, /distilbert/transformer/layer.0/attention/Constant_7" />
			</rt_info>
			<input>
				<port id="0" precision="I64">
					<dim>1</dim>
				</port>
				<port id="1" precision="I64">
					<dim>1</dim>
				</port>
				<port id="2" precision="I64">
					<dim>1</dim>
				</port>
				<port id="3" precision="I64">
					<dim>1</dim>
				</port>
			</input>
			<output>
				<port id="4" precision="I64" names="/distilbert/transformer/layer.0/attention/Concat_1_output_0">
					<dim>4</dim>
				</port>
			</output>
		</layer>
		<layer id="97" name="/distilbert/transformer/layer.0/attention/Reshape_1" type="Reshape" version="opset1">
			<data special_zero="true" />
			<rt_info>
				<attribute name="fused_names" version="0" value="/distilbert/transformer/layer.0/attention/Reshape_1" />
			</rt_info>
			<input>
				<port id="0" precision="FP32">
					<dim>-1</dim>
					<dim>-1</dim>
					<dim>768</dim>
				</port>
				<port id="1" precision="I64">
					<dim>4</dim>
				</port>
			</input>
			<output>
				<port id="2" precision="FP32" names="/distilbert/transformer/layer.0/attention/Reshape_1_output_0">
					<dim>-1</dim>
					<dim>-1</dim>
					<dim>12</dim>
					<dim>64</dim>
				</port>
			</output>
		</layer>
		<layer id="98" name="Constant_255282" type="Const" version="opset1">
			<data element_type="i64" shape="4" offset="95494236" size="32" />
			<rt_info>
				<attribute name="fused_names" version="0" value="Constant_255282" />
			</rt_info>
			<output>
				<port id="0" precision="I64">
					<dim>4</dim>
				</port>
			</output>
		</layer>
		<layer id="99" name="/distilbert/transformer/layer.0/attention/Transpose_2" type="Transpose" version="opset1">
			<rt_info>
				<attribute name="fused_names" version="0" value="/distilbert/transformer/layer.0/attention/Transpose_2" />
			</rt_info>
			<input>
				<port id="0" precision="FP32">
					<dim>-1</dim>
					<dim>-1</dim>
					<dim>12</dim>
					<dim>64</dim>
				</port>
				<port id="1" precision="I64">
					<dim>4</dim>
				</port>
			</input>
			<output>
				<port id="2" precision="FP32" names="/distilbert/transformer/layer.0/attention/Transpose_2_output_0">
					<dim>-1</dim>
					<dim>12</dim>
					<dim>64</dim>
					<dim>-1</dim>
				</port>
			</output>
		</layer>
		<layer id="100" name="/distilbert/transformer/layer.0/attention/MatMul" type="MatMul" version="opset1">
			<data transpose_a="false" transpose_b="false" />
			<rt_info>
				<attribute name="fused_names" version="0" value="/distilbert/transformer/layer.0/attention/MatMul" />
			</rt_info>
			<input>
				<port id="0" precision="FP32">
					<dim>-1</dim>
					<dim>12</dim>
					<dim>-1</dim>
					<dim>64</dim>
				</port>
				<port id="1" precision="FP32">
					<dim>-1</dim>
					<dim>12</dim>
					<dim>64</dim>
					<dim>-1</dim>
				</port>
			</input>
			<output>
				<port id="2" precision="FP32" names="/distilbert/transformer/layer.0/attention/MatMul_output_0">
					<dim>-1</dim>
					<dim>12</dim>
					<dim>-1</dim>
					<dim>-1</dim>
				</port>
			</output>
		</layer>
		<layer id="101" name="/distilbert/transformer/layer.0/attention/Shape_2" type="ShapeOf" version="opset3">
			<data output_type="i64" />
			<rt_info>
				<attribute name="fused_names" version="0" value="/distilbert/transformer/layer.0/attention/Shape_2" />
			</rt_info>
			<input>
				<port id="0" precision="FP32">
					<dim>-1</dim>
					<dim>12</dim>
					<dim>-1</dim>
					<dim>-1</dim>
				</port>
			</input>
			<output>
				<port id="1" precision="I64" names="/distilbert/transformer/layer.0/attention/Shape_2_output_0">
					<dim>4</dim>
				</port>
			</output>
		</layer>
		<layer id="102" name="/distilbert/transformer/layer.0/attention/Expand" type="Broadcast" version="opset3">
			<data mode="bidirectional" />
			<rt_info>
				<attribute name="fused_names" version="0" value="/distilbert/transformer/layer.0/attention/Expand" />
			</rt_info>
			<input>
				<port id="0" precision="BOOL">
					<dim>-1</dim>
					<dim>1</dim>
					<dim>1</dim>
					<dim>-1</dim>
				</port>
				<port id="1" precision="I64">
					<dim>4</dim>
				</port>
			</input>
			<output>
				<port id="2" precision="BOOL" names="/distilbert/transformer/layer.0/attention/Expand_output_0">
					<dim>-1</dim>
					<dim>12</dim>
					<dim>-1</dim>
					<dim>-1</dim>
				</port>
			</output>
		</layer>
		<layer id="103" name="/distilbert/transformer/layer.0/attention/Cast" type="Convert" version="opset1">
			<data destination_type="boolean" />
			<rt_info>
				<attribute name="fused_names" version="0" value="/distilbert/transformer/layer.0/attention/Cast" />
			</rt_info>
			<input>
				<port id="0" precision="BOOL">
					<dim>-1</dim>
					<dim>12</dim>
					<dim>-1</dim>
					<dim>-1</dim>
				</port>
			</input>
			<output>
				<port id="1" precision="BOOL" names="/distilbert/transformer/layer.0/attention/Cast_output_0">
					<dim>-1</dim>
					<dim>12</dim>
					<dim>-1</dim>
					<dim>-1</dim>
				</port>
			</output>
		</layer>
		<layer id="104" name="/distilbert/transformer/layer.0/attention/Constant_15" type="Const" version="opset1">
			<data element_type="f32" shape="" offset="95494268" size="4" />
			<rt_info>
				<attribute name="fused_names" version="0" value="/distilbert/transformer/layer.0/attention/Constant_15" />
			</rt_info>
			<output>
				<port id="0" precision="FP32" names="/distilbert/transformer/layer.0/attention/Constant_15_output_0" />
			</output>
		</layer>
		<layer id="105" name="/distilbert/transformer/layer.0/attention/Where" type="Select" version="opset1">
			<data auto_broadcast="numpy" />
			<rt_info>
				<attribute name="fused_names" version="0" value="/distilbert/transformer/layer.0/attention/Where" />
			</rt_info>
			<input>
				<port id="0" precision="BOOL">
					<dim>-1</dim>
					<dim>12</dim>
					<dim>-1</dim>
					<dim>-1</dim>
				</port>
				<port id="1" precision="FP32" />
				<port id="2" precision="FP32">
					<dim>-1</dim>
					<dim>12</dim>
					<dim>-1</dim>
					<dim>-1</dim>
				</port>
			</input>
			<output>
				<port id="3" precision="FP32" names="/distilbert/transformer/layer.0/attention/Where_output_0">
					<dim>-1</dim>
					<dim>12</dim>
					<dim>-1</dim>
					<dim>-1</dim>
				</port>
			</output>
		</layer>
		<layer id="106" name="/distilbert/transformer/layer.0/attention/Softmax" type="SoftMax" version="opset8">
			<data axis="3" />
			<rt_info>
				<attribute name="fused_names" version="0" value="/distilbert/transformer/layer.0/attention/Softmax" />
			</rt_info>
			<input>
				<port id="0" precision="FP32">
					<dim>-1</dim>
					<dim>12</dim>
					<dim>-1</dim>
					<dim>-1</dim>
				</port>
			</input>
			<output>
				<port id="1" precision="FP32" names="/distilbert/transformer/layer.0/attention/Softmax_output_0">
					<dim>-1</dim>
					<dim>12</dim>
					<dim>-1</dim>
					<dim>-1</dim>
				</port>
			</output>
		</layer>
		<layer id="107" name="distilbert.transformer.layer.0.attention.v_lin.bias" type="Const" version="opset1">
			<data element_type="f32" shape="768" offset="95494272" size="3072" />
			<rt_info>
				<attribute name="fused_names" version="0" value="distilbert.transformer.layer.0.attention.v_lin.bias" />
			</rt_info>
			<output>
				<port id="0" precision="FP32" names="distilbert.transformer.layer.0.attention.v_lin.bias">
					<dim>768</dim>
				</port>
			</output>
		</layer>
		<layer id="108" name="onnx::MatMul_749" type="Const" version="opset1">
			<data element_type="f32" shape="768, 768" offset="95497344" size="2359296" />
			<rt_info>
				<attribute name="fused_names" version="0" value="onnx::MatMul_749" />
			</rt_info>
			<output>
				<port id="0" precision="FP32" names="onnx::MatMul_749">
					<dim>768</dim>
					<dim>768</dim>
				</port>
			</output>
		</layer>
		<layer id="109" name="/distilbert/transformer/layer.0/attention/v_lin/MatMul" type="MatMul" version="opset1">
			<data transpose_a="false" transpose_b="false" />
			<rt_info>
				<attribute name="fused_names" version="0" value="/distilbert/transformer/layer.0/attention/v_lin/MatMul" />
			</rt_info>
			<input>
				<port id="0" precision="FP32">
					<dim>-1</dim>
					<dim>-1</dim>
					<dim>768</dim>
				</port>
				<port id="1" precision="FP32">
					<dim>768</dim>
					<dim>768</dim>
				</port>
			</input>
			<output>
				<port id="2" precision="FP32" names="/distilbert/transformer/layer.0/attention/v_lin/MatMul_output_0">
					<dim>-1</dim>
					<dim>-1</dim>
					<dim>768</dim>
				</port>
			</output>
		</layer>
		<layer id="110" name="/distilbert/transformer/layer.0/attention/v_lin/Add" type="Add" version="opset1">
			<data auto_broadcast="numpy" />
			<rt_info>
				<attribute name="fused_names" version="0" value="/distilbert/transformer/layer.0/attention/v_lin/Add" />
			</rt_info>
			<input>
				<port id="0" precision="FP32">
					<dim>768</dim>
				</port>
				<port id="1" precision="FP32">
					<dim>-1</dim>
					<dim>-1</dim>
					<dim>768</dim>
				</port>
			</input>
			<output>
				<port id="2" precision="FP32" names="/distilbert/transformer/layer.0/attention/v_lin/Add_output_0">
					<dim>-1</dim>
					<dim>-1</dim>
					<dim>768</dim>
				</port>
			</output>
		</layer>
		<layer id="111" name="Constant_255245" type="Const" version="opset1">
			<data element_type="i64" shape="1" offset="18440" size="8" />
			<rt_info>
				<attribute name="fused_names" version="0" value="Constant_255245" />
			</rt_info>
			<output>
				<port id="0" precision="I64">
					<dim>1</dim>
				</port>
			</output>
		</layer>
		<layer id="112" name="/distilbert/transformer/layer.0/attention/Unsqueeze_2" type="Unsqueeze" version="opset1">
			<rt_info>
				<attribute name="fused_names" version="0" value="/distilbert/transformer/layer.0/attention/Unsqueeze_2, Constant_255245" />
			</rt_info>
			<input>
				<port id="0" precision="I64" />
				<port id="1" precision="I64">
					<dim>1</dim>
				</port>
			</input>
			<output>
				<port id="2" precision="I64" names="/distilbert/transformer/layer.0/attention/Unsqueeze_2_output_0">
					<dim>1</dim>
				</port>
			</output>
		</layer>
		<layer id="113" name="/distilbert/transformer/layer.0/attention/Constant_8" type="Const" version="opset1">
			<data element_type="i64" shape="1" offset="90763288" size="8" />
			<rt_info>
				<attribute name="fused_names" version="0" value="/distilbert/transformer/layer.0/attention/Constant_8" />
			</rt_info>
			<output>
				<port id="0" precision="I64" names="/distilbert/transformer/layer.0/attention/Constant_8_output_0">
					<dim>1</dim>
				</port>
			</output>
		</layer>
		<layer id="114" name="/distilbert/transformer/layer.0/attention/Constant_9" type="Const" version="opset1">
			<data element_type="i64" shape="1" offset="93131816" size="8" />
			<rt_info>
				<attribute name="fused_names" version="0" value="/distilbert/transformer/layer.0/attention/Constant_9" />
			</rt_info>
			<output>
				<port id="0" precision="I64" names="/distilbert/transformer/layer.0/attention/Constant_9_output_0">
					<dim>1</dim>
				</port>
			</output>
		</layer>
		<layer id="115" name="/distilbert/transformer/layer.0/attention/Constant_10" type="Const" version="opset1">
			<data element_type="i64" shape="1" offset="93131824" size="8" />
			<rt_info>
				<attribute name="fused_names" version="0" value="/distilbert/transformer/layer.0/attention/Constant_10" />
			</rt_info>
			<output>
				<port id="0" precision="I64" names="/distilbert/transformer/layer.0/attention/Constant_10_output_0">
					<dim>1</dim>
				</port>
			</output>
		</layer>
		<layer id="116" name="/distilbert/transformer/layer.0/attention/Concat_2" type="Concat" version="opset1">
			<data axis="0" />
			<rt_info>
				<attribute name="fused_names" version="0" value="/distilbert/transformer/layer.0/attention/Concat_2, /distilbert/transformer/layer.0/attention/Constant_10, /distilbert/transformer/layer.0/attention/Constant_8, /distilbert/transformer/layer.0/attention/Constant_9" />
			</rt_info>
			<input>
				<port id="0" precision="I64">
					<dim>1</dim>
				</port>
				<port id="1" precision="I64">
					<dim>1</dim>
				</port>
				<port id="2" precision="I64">
					<dim>1</dim>
				</port>
				<port id="3" precision="I64">
					<dim>1</dim>
				</port>
			</input>
			<output>
				<port id="4" precision="I64" names="/distilbert/transformer/layer.0/attention/Concat_2_output_0">
					<dim>4</dim>
				</port>
			</output>
		</layer>
		<layer id="117" name="/distilbert/transformer/layer.0/attention/Reshape_2" type="Reshape" version="opset1">
			<data special_zero="true" />
			<rt_info>
				<attribute name="fused_names" version="0" value="/distilbert/transformer/layer.0/attention/Reshape_2" />
			</rt_info>
			<input>
				<port id="0" precision="FP32">
					<dim>-1</dim>
					<dim>-1</dim>
					<dim>768</dim>
				</port>
				<port id="1" precision="I64">
					<dim>4</dim>
				</port>
			</input>
			<output>
				<port id="2" precision="FP32" names="/distilbert/transformer/layer.0/attention/Reshape_2_output_0">
					<dim>-1</dim>
					<dim>-1</dim>
					<dim>12</dim>
					<dim>64</dim>
				</port>
			</output>
		</layer>
		<layer id="118" name="Constant_255278" type="Const" version="opset1">
			<data element_type="i64" shape="4" offset="93131832" size="32" />
			<rt_info>
				<attribute name="fused_names" version="0" value="Constant_255278" />
			</rt_info>
			<output>
				<port id="0" precision="I64">
					<dim>4</dim>
				</port>
			</output>
		</layer>
		<layer id="119" name="/distilbert/transformer/layer.0/attention/Transpose_1" type="Transpose" version="opset1">
			<rt_info>
				<attribute name="fused_names" version="0" value="/distilbert/transformer/layer.0/attention/Transpose_1" />
			</rt_info>
			<input>
				<port id="0" precision="FP32">
					<dim>-1</dim>
					<dim>-1</dim>
					<dim>12</dim>
					<dim>64</dim>
				</port>
				<port id="1" precision="I64">
					<dim>4</dim>
				</port>
			</input>
			<output>
				<port id="2" precision="FP32" names="/distilbert/transformer/layer.0/attention/Transpose_1_output_0">
					<dim>-1</dim>
					<dim>12</dim>
					<dim>-1</dim>
					<dim>64</dim>
				</port>
			</output>
		</layer>
		<layer id="120" name="/distilbert/transformer/layer.0/attention/MatMul_1" type="MatMul" version="opset1">
			<data transpose_a="false" transpose_b="false" />
			<rt_info>
				<attribute name="fused_names" version="0" value="/distilbert/transformer/layer.0/attention/MatMul_1" />
			</rt_info>
			<input>
				<port id="0" precision="FP32">
					<dim>-1</dim>
					<dim>12</dim>
					<dim>-1</dim>
					<dim>-1</dim>
				</port>
				<port id="1" precision="FP32">
					<dim>-1</dim>
					<dim>12</dim>
					<dim>-1</dim>
					<dim>64</dim>
				</port>
			</input>
			<output>
				<port id="2" precision="FP32" names="/distilbert/transformer/layer.0/attention/MatMul_1_output_0">
					<dim>-1</dim>
					<dim>12</dim>
					<dim>-1</dim>
					<dim>64</dim>
				</port>
			</output>
		</layer>
		<layer id="121" name="Constant_255316" type="Const" version="opset1">
			<data element_type="i64" shape="4" offset="93131832" size="32" />
			<rt_info>
				<attribute name="fused_names" version="0" value="Constant_255316" />
			</rt_info>
			<output>
				<port id="0" precision="I64">
					<dim>4</dim>
				</port>
			</output>
		</layer>
		<layer id="122" name="/distilbert/transformer/layer.0/attention/Transpose_3" type="Transpose" version="opset1">
			<rt_info>
				<attribute name="fused_names" version="0" value="/distilbert/transformer/layer.0/attention/Transpose_3" />
			</rt_info>
			<input>
				<port id="0" precision="FP32">
					<dim>-1</dim>
					<dim>12</dim>
					<dim>-1</dim>
					<dim>64</dim>
				</port>
				<port id="1" precision="I64">
					<dim>4</dim>
				</port>
			</input>
			<output>
				<port id="2" precision="FP32" names="/distilbert/transformer/layer.0/attention/Transpose_3_output_0">
					<dim>-1</dim>
					<dim>-1</dim>
					<dim>12</dim>
					<dim>64</dim>
				</port>
			</output>
		</layer>
		<layer id="123" name="Constant_255318" type="Const" version="opset1">
			<data element_type="i64" shape="1" offset="18440" size="8" />
			<rt_info>
				<attribute name="fused_names" version="0" value="Constant_255318" />
			</rt_info>
			<output>
				<port id="0" precision="I64">
					<dim>1</dim>
				</port>
			</output>
		</layer>
		<layer id="124" name="/distilbert/transformer/layer.0/attention/Unsqueeze_5" type="Unsqueeze" version="opset1">
			<rt_info>
				<attribute name="fused_names" version="0" value="/distilbert/transformer/layer.0/attention/Unsqueeze_5, Constant_255318" />
			</rt_info>
			<input>
				<port id="0" precision="I64" />
				<port id="1" precision="I64">
					<dim>1</dim>
				</port>
			</input>
			<output>
				<port id="2" precision="I64" names="/distilbert/transformer/layer.0/attention/Unsqueeze_5_output_0">
					<dim>1</dim>
				</port>
			</output>
		</layer>
		<layer id="125" name="/distilbert/transformer/layer.0/attention/Constant_16" type="Const" version="opset1">
			<data element_type="i64" shape="1" offset="90763288" size="8" />
			<rt_info>
				<attribute name="fused_names" version="0" value="/distilbert/transformer/layer.0/attention/Constant_16" />
			</rt_info>
			<output>
				<port id="0" precision="I64" names="/distilbert/transformer/layer.0/attention/Constant_16_output_0">
					<dim>1</dim>
				</port>
			</output>
		</layer>
		<layer id="126" name="/distilbert/transformer/layer.0/attention/Constant_17" type="Const" version="opset1">
			<data element_type="i64" shape="1" offset="97856640" size="8" />
			<rt_info>
				<attribute name="fused_names" version="0" value="/distilbert/transformer/layer.0/attention/Constant_17" />
			</rt_info>
			<output>
				<port id="0" precision="I64" names="/distilbert/transformer/layer.0/attention/Constant_17_output_0">
					<dim>1</dim>
				</port>
			</output>
		</layer>
		<layer id="127" name="/distilbert/transformer/layer.0/attention/Concat_4" type="Concat" version="opset1">
			<data axis="0" />
			<rt_info>
				<attribute name="fused_names" version="0" value="/distilbert/transformer/layer.0/attention/Concat_4, /distilbert/transformer/layer.0/attention/Constant_16, /distilbert/transformer/layer.0/attention/Constant_17" />
			</rt_info>
			<input>
				<port id="0" precision="I64">
					<dim>1</dim>
				</port>
				<port id="1" precision="I64">
					<dim>1</dim>
				</port>
				<port id="2" precision="I64">
					<dim>1</dim>
				</port>
			</input>
			<output>
				<port id="3" precision="I64" names="/distilbert/transformer/layer.0/attention/Concat_4_output_0">
					<dim>3</dim>
				</port>
			</output>
		</layer>
		<layer id="128" name="/distilbert/transformer/layer.0/attention/Reshape_4" type="Reshape" version="opset1">
			<data special_zero="true" />
			<rt_info>
				<attribute name="fused_names" version="0" value="/distilbert/transformer/layer.0/attention/Reshape_4" />
			</rt_info>
			<input>
				<port id="0" precision="FP32">
					<dim>-1</dim>
					<dim>-1</dim>
					<dim>12</dim>
					<dim>64</dim>
				</port>
				<port id="1" precision="I64">
					<dim>3</dim>
				</port>
			</input>
			<output>
				<port id="2" precision="FP32" names="/distilbert/transformer/layer.0/attention/Reshape_4_output_0">
					<dim>-1</dim>
					<dim>-1</dim>
					<dim>768</dim>
				</port>
			</output>
		</layer>
		<layer id="129" name="onnx::MatMul_754" type="Const" version="opset1">
			<data element_type="f32" shape="768, 768" offset="97856648" size="2359296" />
			<rt_info>
				<attribute name="fused_names" version="0" value="onnx::MatMul_754" />
			</rt_info>
			<output>
				<port id="0" precision="FP32" names="onnx::MatMul_754">
					<dim>768</dim>
					<dim>768</dim>
				</port>
			</output>
		</layer>
		<layer id="130" name="/distilbert/transformer/layer.0/attention/out_lin/MatMul" type="MatMul" version="opset1">
			<data transpose_a="false" transpose_b="false" />
			<rt_info>
				<attribute name="fused_names" version="0" value="/distilbert/transformer/layer.0/attention/out_lin/MatMul" />
			</rt_info>
			<input>
				<port id="0" precision="FP32">
					<dim>-1</dim>
					<dim>-1</dim>
					<dim>768</dim>
				</port>
				<port id="1" precision="FP32">
					<dim>768</dim>
					<dim>768</dim>
				</port>
			</input>
			<output>
				<port id="2" precision="FP32" names="/distilbert/transformer/layer.0/attention/out_lin/MatMul_output_0">
					<dim>-1</dim>
					<dim>-1</dim>
					<dim>768</dim>
				</port>
			</output>
		</layer>
		<layer id="131" name="/distilbert/transformer/layer.0/attention/out_lin/Add" type="Add" version="opset1">
			<data auto_broadcast="numpy" />
			<rt_info>
				<attribute name="fused_names" version="0" value="/distilbert/transformer/layer.0/attention/out_lin/Add" />
			</rt_info>
			<input>
				<port id="0" precision="FP32">
					<dim>768</dim>
				</port>
				<port id="1" precision="FP32">
					<dim>-1</dim>
					<dim>-1</dim>
					<dim>768</dim>
				</port>
			</input>
			<output>
				<port id="2" precision="FP32" names="/distilbert/transformer/layer.0/attention/out_lin/Add_output_0">
					<dim>-1</dim>
					<dim>-1</dim>
					<dim>768</dim>
				</port>
			</output>
		</layer>
		<layer id="132" name="/distilbert/transformer/layer.0/Add" type="Add" version="opset1">
			<data auto_broadcast="numpy" />
			<rt_info>
				<attribute name="fused_names" version="0" value="/distilbert/transformer/layer.0/Add" />
			</rt_info>
			<input>
				<port id="0" precision="FP32">
					<dim>-1</dim>
					<dim>-1</dim>
					<dim>768</dim>
				</port>
				<port id="1" precision="FP32">
					<dim>-1</dim>
					<dim>-1</dim>
					<dim>768</dim>
				</port>
			</input>
			<output>
				<port id="2" precision="FP32" names="/distilbert/transformer/layer.0/Add_output_0">
					<dim>-1</dim>
					<dim>-1</dim>
					<dim>768</dim>
				</port>
			</output>
		</layer>
		<layer id="133" name="Constant_255333" type="Const" version="opset1">
			<data element_type="i64" shape="1" offset="90763288" size="8" />
			<rt_info>
				<attribute name="fused_names" version="0" value="Constant_255333" />
			</rt_info>
			<output>
				<port id="0" precision="I64">
					<dim>1</dim>
				</port>
			</output>
		</layer>
		<layer id="134" name="/distilbert/transformer/layer.0/sa_layer_norm/ReduceMean" type="ReduceMean" version="opset1">
			<data keep_dims="true" />
			<rt_info>
				<attribute name="fused_names" version="0" value="/distilbert/transformer/layer.0/sa_layer_norm/ReduceMean" />
			</rt_info>
			<input>
				<port id="0" precision="FP32">
					<dim>-1</dim>
					<dim>-1</dim>
					<dim>768</dim>
				</port>
				<port id="1" precision="I64">
					<dim>1</dim>
				</port>
			</input>
			<output>
				<port id="2" precision="FP32" names="/distilbert/transformer/layer.0/sa_layer_norm/ReduceMean_output_0">
					<dim>-1</dim>
					<dim>-1</dim>
					<dim>1</dim>
				</port>
			</output>
		</layer>
		<layer id="135" name="/distilbert/transformer/layer.0/sa_layer_norm/Sub" type="Subtract" version="opset1">
			<data auto_broadcast="numpy" />
			<rt_info>
				<attribute name="fused_names" version="0" value="/distilbert/transformer/layer.0/sa_layer_norm/Sub" />
			</rt_info>
			<input>
				<port id="0" precision="FP32">
					<dim>-1</dim>
					<dim>-1</dim>
					<dim>768</dim>
				</port>
				<port id="1" precision="FP32">
					<dim>-1</dim>
					<dim>-1</dim>
					<dim>1</dim>
				</port>
			</input>
			<output>
				<port id="2" precision="FP32" names="/distilbert/transformer/layer.0/sa_layer_norm/Sub_output_0">
					<dim>-1</dim>
					<dim>-1</dim>
					<dim>768</dim>
				</port>
			</output>
		</layer>
		<layer id="136" name="/distilbert/transformer/layer.0/sa_layer_norm/Constant" type="Const" version="opset1">
			<data element_type="f32" shape="" offset="90763296" size="4" />
			<rt_info>
				<attribute name="fused_names" version="0" value="/distilbert/transformer/layer.0/sa_layer_norm/Constant" />
			</rt_info>
			<output>
				<port id="0" precision="FP32" names="/distilbert/transformer/layer.0/sa_layer_norm/Constant_output_0" />
			</output>
		</layer>
		<layer id="137" name="/distilbert/transformer/layer.0/sa_layer_norm/Pow" type="Power" version="opset1">
			<data auto_broadcast="numpy" />
			<rt_info>
				<attribute name="fused_names" version="0" value="/distilbert/transformer/layer.0/sa_layer_norm/Pow" />
			</rt_info>
			<input>
				<port id="0" precision="FP32">
					<dim>-1</dim>
					<dim>-1</dim>
					<dim>768</dim>
				</port>
				<port id="1" precision="FP32" />
			</input>
			<output>
				<port id="2" precision="FP32" names="/distilbert/transformer/layer.0/sa_layer_norm/Pow_output_0">
					<dim>-1</dim>
					<dim>-1</dim>
					<dim>768</dim>
				</port>
			</output>
		</layer>
		<layer id="138" name="Constant_255338" type="Const" version="opset1">
			<data element_type="i64" shape="1" offset="90763288" size="8" />
			<rt_info>
				<attribute name="fused_names" version="0" value="Constant_255338" />
			</rt_info>
			<output>
				<port id="0" precision="I64">
					<dim>1</dim>
				</port>
			</output>
		</layer>
		<layer id="139" name="/distilbert/transformer/layer.0/sa_layer_norm/ReduceMean_1" type="ReduceMean" version="opset1">
			<data keep_dims="true" />
			<rt_info>
				<attribute name="fused_names" version="0" value="/distilbert/transformer/layer.0/sa_layer_norm/ReduceMean_1" />
			</rt_info>
			<input>
				<port id="0" precision="FP32">
					<dim>-1</dim>
					<dim>-1</dim>
					<dim>768</dim>
				</port>
				<port id="1" precision="I64">
					<dim>1</dim>
				</port>
			</input>
			<output>
				<port id="2" precision="FP32" names="/distilbert/transformer/layer.0/sa_layer_norm/ReduceMean_1_output_0">
					<dim>-1</dim>
					<dim>-1</dim>
					<dim>1</dim>
				</port>
			</output>
		</layer>
		<layer id="140" name="/distilbert/transformer/layer.0/sa_layer_norm/Constant_1" type="Const" version="opset1">
			<data element_type="f32" shape="" offset="90763300" size="4" />
			<rt_info>
				<attribute name="fused_names" version="0" value="/distilbert/transformer/layer.0/sa_layer_norm/Constant_1" />
			</rt_info>
			<output>
				<port id="0" precision="FP32" names="/distilbert/transformer/layer.0/sa_layer_norm/Constant_1_output_0" />
			</output>
		</layer>
		<layer id="141" name="/distilbert/transformer/layer.0/sa_layer_norm/Add" type="Add" version="opset1">
			<data auto_broadcast="numpy" />
			<rt_info>
				<attribute name="fused_names" version="0" value="/distilbert/transformer/layer.0/sa_layer_norm/Add" />
			</rt_info>
			<input>
				<port id="0" precision="FP32">
					<dim>-1</dim>
					<dim>-1</dim>
					<dim>1</dim>
				</port>
				<port id="1" precision="FP32" />
			</input>
			<output>
				<port id="2" precision="FP32" names="/distilbert/transformer/layer.0/sa_layer_norm/Add_output_0">
					<dim>-1</dim>
					<dim>-1</dim>
					<dim>1</dim>
				</port>
			</output>
		</layer>
		<layer id="142" name="/distilbert/transformer/layer.0/sa_layer_norm/Sqrt" type="Sqrt" version="opset1">
			<rt_info>
				<attribute name="fused_names" version="0" value="/distilbert/transformer/layer.0/sa_layer_norm/Sqrt" />
			</rt_info>
			<input>
				<port id="0" precision="FP32">
					<dim>-1</dim>
					<dim>-1</dim>
					<dim>1</dim>
				</port>
			</input>
			<output>
				<port id="1" precision="FP32" names="/distilbert/transformer/layer.0/sa_layer_norm/Sqrt_output_0">
					<dim>-1</dim>
					<dim>-1</dim>
					<dim>1</dim>
				</port>
			</output>
		</layer>
		<layer id="143" name="/distilbert/transformer/layer.0/sa_layer_norm/Div" type="Divide" version="opset1">
			<data auto_broadcast="numpy" m_pythondiv="true" />
			<rt_info>
				<attribute name="fused_names" version="0" value="/distilbert/transformer/layer.0/sa_layer_norm/Div" />
			</rt_info>
			<input>
				<port id="0" precision="FP32">
					<dim>-1</dim>
					<dim>-1</dim>
					<dim>768</dim>
				</port>
				<port id="1" precision="FP32">
					<dim>-1</dim>
					<dim>-1</dim>
					<dim>1</dim>
				</port>
			</input>
			<output>
				<port id="2" precision="FP32" names="/distilbert/transformer/layer.0/sa_layer_norm/Div_output_0">
					<dim>-1</dim>
					<dim>-1</dim>
					<dim>768</dim>
				</port>
			</output>
		</layer>
		<layer id="144" name="distilbert.transformer.layer.0.sa_layer_norm.weight" type="Const" version="opset1">
			<data element_type="f32" shape="768" offset="100215944" size="3072" />
			<rt_info>
				<attribute name="fused_names" version="0" value="distilbert.transformer.layer.0.sa_layer_norm.weight" />
			</rt_info>
			<output>
				<port id="0" precision="FP32" names="distilbert.transformer.layer.0.sa_layer_norm.weight">
					<dim>768</dim>
				</port>
			</output>
		</layer>
		<layer id="145" name="/distilbert/transformer/layer.0/sa_layer_norm/Mul" type="Multiply" version="opset1">
			<data auto_broadcast="numpy" />
			<rt_info>
				<attribute name="fused_names" version="0" value="/distilbert/transformer/layer.0/sa_layer_norm/Mul" />
			</rt_info>
			<input>
				<port id="0" precision="FP32">
					<dim>-1</dim>
					<dim>-1</dim>
					<dim>768</dim>
				</port>
				<port id="1" precision="FP32">
					<dim>768</dim>
				</port>
			</input>
			<output>
				<port id="2" precision="FP32" names="/distilbert/transformer/layer.0/sa_layer_norm/Mul_output_0">
					<dim>-1</dim>
					<dim>-1</dim>
					<dim>768</dim>
				</port>
			</output>
		</layer>
		<layer id="146" name="distilbert.transformer.layer.0.sa_layer_norm.bias" type="Const" version="opset1">
			<data element_type="f32" shape="768" offset="100219016" size="3072" />
			<rt_info>
				<attribute name="fused_names" version="0" value="distilbert.transformer.layer.0.sa_layer_norm.bias" />
			</rt_info>
			<output>
				<port id="0" precision="FP32" names="distilbert.transformer.layer.0.sa_layer_norm.bias">
					<dim>768</dim>
				</port>
			</output>
		</layer>
		<layer id="147" name="/distilbert/transformer/layer.0/sa_layer_norm/Add_1" type="Add" version="opset1">
			<data auto_broadcast="numpy" />
			<rt_info>
				<attribute name="fused_names" version="0" value="/distilbert/transformer/layer.0/sa_layer_norm/Add_1" />
			</rt_info>
			<input>
				<port id="0" precision="FP32">
					<dim>-1</dim>
					<dim>-1</dim>
					<dim>768</dim>
				</port>
				<port id="1" precision="FP32">
					<dim>768</dim>
				</port>
			</input>
			<output>
				<port id="2" precision="FP32" names="/distilbert/transformer/layer.0/sa_layer_norm/Add_1_output_0">
					<dim>-1</dim>
					<dim>-1</dim>
					<dim>768</dim>
				</port>
			</output>
		</layer>
		<layer id="148" name="onnx::MatMul_755" type="Const" version="opset1">
			<data element_type="f32" shape="768, 3072" offset="100222088" size="9437184" />
			<rt_info>
				<attribute name="fused_names" version="0" value="onnx::MatMul_755" />
			</rt_info>
			<output>
				<port id="0" precision="FP32" names="onnx::MatMul_755">
					<dim>768</dim>
					<dim>3072</dim>
				</port>
			</output>
		</layer>
		<layer id="149" name="/distilbert/transformer/layer.0/ffn/lin1/MatMul" type="MatMul" version="opset1">
			<data transpose_a="false" transpose_b="false" />
			<rt_info>
				<attribute name="fused_names" version="0" value="/distilbert/transformer/layer.0/ffn/lin1/MatMul" />
			</rt_info>
			<input>
				<port id="0" precision="FP32">
					<dim>-1</dim>
					<dim>-1</dim>
					<dim>768</dim>
				</port>
				<port id="1" precision="FP32">
					<dim>768</dim>
					<dim>3072</dim>
				</port>
			</input>
			<output>
				<port id="2" precision="FP32" names="/distilbert/transformer/layer.0/ffn/lin1/MatMul_output_0">
					<dim>-1</dim>
					<dim>-1</dim>
					<dim>3072</dim>
				</port>
			</output>
		</layer>
		<layer id="150" name="/distilbert/transformer/layer.0/ffn/lin1/Add" type="Add" version="opset1">
			<data auto_broadcast="numpy" />
			<rt_info>
				<attribute name="fused_names" version="0" value="/distilbert/transformer/layer.0/ffn/lin1/Add" />
			</rt_info>
			<input>
				<port id="0" precision="FP32">
					<dim>3072</dim>
				</port>
				<port id="1" precision="FP32">
					<dim>-1</dim>
					<dim>-1</dim>
					<dim>3072</dim>
				</port>
			</input>
			<output>
				<port id="2" precision="FP32" names="/distilbert/transformer/layer.0/ffn/lin1/Add_output_0">
					<dim>-1</dim>
					<dim>-1</dim>
					<dim>3072</dim>
				</port>
			</output>
		</layer>
		<layer id="151" name="/distilbert/transformer/layer.0/ffn/activation/Constant" type="Const" version="opset1">
			<data element_type="f32" shape="" offset="109659272" size="4" />
			<rt_info>
				<attribute name="fused_names" version="0" value="/distilbert/transformer/layer.0/ffn/activation/Constant" />
			</rt_info>
			<output>
				<port id="0" precision="FP32" names="/distilbert/transformer/layer.0/ffn/activation/Constant_output_0" />
			</output>
		</layer>
		<layer id="152" name="/distilbert/transformer/layer.0/ffn/activation/Div" type="Divide" version="opset1">
			<data auto_broadcast="numpy" m_pythondiv="true" />
			<rt_info>
				<attribute name="fused_names" version="0" value="/distilbert/transformer/layer.0/ffn/activation/Div" />
			</rt_info>
			<input>
				<port id="0" precision="FP32">
					<dim>-1</dim>
					<dim>-1</dim>
					<dim>3072</dim>
				</port>
				<port id="1" precision="FP32" />
			</input>
			<output>
				<port id="2" precision="FP32" names="/distilbert/transformer/layer.0/ffn/activation/Div_output_0">
					<dim>-1</dim>
					<dim>-1</dim>
					<dim>3072</dim>
				</port>
			</output>
		</layer>
		<layer id="153" name="/distilbert/transformer/layer.0/ffn/activation/Erf" type="Erf" version="opset1">
			<rt_info>
				<attribute name="fused_names" version="0" value="/distilbert/transformer/layer.0/ffn/activation/Erf" />
			</rt_info>
			<input>
				<port id="0" precision="FP32">
					<dim>-1</dim>
					<dim>-1</dim>
					<dim>3072</dim>
				</port>
			</input>
			<output>
				<port id="1" precision="FP32" names="/distilbert/transformer/layer.0/ffn/activation/Erf_output_0">
					<dim>-1</dim>
					<dim>-1</dim>
					<dim>3072</dim>
				</port>
			</output>
		</layer>
		<layer id="154" name="/distilbert/transformer/layer.0/ffn/activation/Constant_1" type="Const" version="opset1">
			<data element_type="f32" shape="" offset="109659276" size="4" />
			<rt_info>
				<attribute name="fused_names" version="0" value="/distilbert/transformer/layer.0/ffn/activation/Constant_1" />
			</rt_info>
			<output>
				<port id="0" precision="FP32" names="/distilbert/transformer/layer.0/ffn/activation/Constant_1_output_0" />
			</output>
		</layer>
		<layer id="155" name="/distilbert/transformer/layer.0/ffn/activation/Add" type="Add" version="opset1">
			<data auto_broadcast="numpy" />
			<rt_info>
				<attribute name="fused_names" version="0" value="/distilbert/transformer/layer.0/ffn/activation/Add" />
			</rt_info>
			<input>
				<port id="0" precision="FP32">
					<dim>-1</dim>
					<dim>-1</dim>
					<dim>3072</dim>
				</port>
				<port id="1" precision="FP32" />
			</input>
			<output>
				<port id="2" precision="FP32" names="/distilbert/transformer/layer.0/ffn/activation/Add_output_0">
					<dim>-1</dim>
					<dim>-1</dim>
					<dim>3072</dim>
				</port>
			</output>
		</layer>
		<layer id="156" name="/distilbert/transformer/layer.0/ffn/activation/Mul" type="Multiply" version="opset1">
			<data auto_broadcast="numpy" />
			<rt_info>
				<attribute name="fused_names" version="0" value="/distilbert/transformer/layer.0/ffn/activation/Mul" />
			</rt_info>
			<input>
				<port id="0" precision="FP32">
					<dim>-1</dim>
					<dim>-1</dim>
					<dim>3072</dim>
				</port>
				<port id="1" precision="FP32">
					<dim>-1</dim>
					<dim>-1</dim>
					<dim>3072</dim>
				</port>
			</input>
			<output>
				<port id="2" precision="FP32" names="/distilbert/transformer/layer.0/ffn/activation/Mul_output_0">
					<dim>-1</dim>
					<dim>-1</dim>
					<dim>3072</dim>
				</port>
			</output>
		</layer>
		<layer id="157" name="/distilbert/transformer/layer.0/ffn/activation/Constant_2" type="Const" version="opset1">
			<data element_type="f32" shape="" offset="109659280" size="4" />
			<rt_info>
				<attribute name="fused_names" version="0" value="/distilbert/transformer/layer.0/ffn/activation/Constant_2" />
			</rt_info>
			<output>
				<port id="0" precision="FP32" names="/distilbert/transformer/layer.0/ffn/activation/Constant_2_output_0" />
			</output>
		</layer>
		<layer id="158" name="/distilbert/transformer/layer.0/ffn/activation/Mul_1" type="Multiply" version="opset1">
			<data auto_broadcast="numpy" />
			<rt_info>
				<attribute name="fused_names" version="0" value="/distilbert/transformer/layer.0/ffn/activation/Mul_1" />
			</rt_info>
			<input>
				<port id="0" precision="FP32">
					<dim>-1</dim>
					<dim>-1</dim>
					<dim>3072</dim>
				</port>
				<port id="1" precision="FP32" />
			</input>
			<output>
				<port id="2" precision="FP32" names="/distilbert/transformer/layer.0/ffn/activation/Mul_1_output_0">
					<dim>-1</dim>
					<dim>-1</dim>
					<dim>3072</dim>
				</port>
			</output>
		</layer>
		<layer id="159" name="onnx::MatMul_756" type="Const" version="opset1">
			<data element_type="f32" shape="3072, 768" offset="109659284" size="9437184" />
			<rt_info>
				<attribute name="fused_names" version="0" value="onnx::MatMul_756" />
			</rt_info>
			<output>
				<port id="0" precision="FP32" names="onnx::MatMul_756">
					<dim>3072</dim>
					<dim>768</dim>
				</port>
			</output>
		</layer>
		<layer id="160" name="/distilbert/transformer/layer.0/ffn/lin2/MatMul" type="MatMul" version="opset1">
			<data transpose_a="false" transpose_b="false" />
			<rt_info>
				<attribute name="fused_names" version="0" value="/distilbert/transformer/layer.0/ffn/lin2/MatMul" />
			</rt_info>
			<input>
				<port id="0" precision="FP32">
					<dim>-1</dim>
					<dim>-1</dim>
					<dim>3072</dim>
				</port>
				<port id="1" precision="FP32">
					<dim>3072</dim>
					<dim>768</dim>
				</port>
			</input>
			<output>
				<port id="2" precision="FP32" names="/distilbert/transformer/layer.0/ffn/lin2/MatMul_output_0">
					<dim>-1</dim>
					<dim>-1</dim>
					<dim>768</dim>
				</port>
			</output>
		</layer>
		<layer id="161" name="/distilbert/transformer/layer.0/ffn/lin2/Add" type="Add" version="opset1">
			<data auto_broadcast="numpy" />
			<rt_info>
				<attribute name="fused_names" version="0" value="/distilbert/transformer/layer.0/ffn/lin2/Add" />
			</rt_info>
			<input>
				<port id="0" precision="FP32">
					<dim>768</dim>
				</port>
				<port id="1" precision="FP32">
					<dim>-1</dim>
					<dim>-1</dim>
					<dim>768</dim>
				</port>
			</input>
			<output>
				<port id="2" precision="FP32" names="/distilbert/transformer/layer.0/ffn/lin2/Add_output_0">
					<dim>-1</dim>
					<dim>-1</dim>
					<dim>768</dim>
				</port>
			</output>
		</layer>
		<layer id="162" name="/distilbert/transformer/layer.0/Add_1" type="Add" version="opset1">
			<data auto_broadcast="numpy" />
			<rt_info>
				<attribute name="fused_names" version="0" value="/distilbert/transformer/layer.0/Add_1" />
			</rt_info>
			<input>
				<port id="0" precision="FP32">
					<dim>-1</dim>
					<dim>-1</dim>
					<dim>768</dim>
				</port>
				<port id="1" precision="FP32">
					<dim>-1</dim>
					<dim>-1</dim>
					<dim>768</dim>
				</port>
			</input>
			<output>
				<port id="2" precision="FP32" names="/distilbert/transformer/layer.0/Add_1_output_0">
					<dim>-1</dim>
					<dim>-1</dim>
					<dim>768</dim>
				</port>
			</output>
		</layer>
		<layer id="163" name="Constant_255359" type="Const" version="opset1">
			<data element_type="i64" shape="1" offset="90763288" size="8" />
			<rt_info>
				<attribute name="fused_names" version="0" value="Constant_255359" />
			</rt_info>
			<output>
				<port id="0" precision="I64">
					<dim>1</dim>
				</port>
			</output>
		</layer>
		<layer id="164" name="/distilbert/transformer/layer.0/output_layer_norm/ReduceMean" type="ReduceMean" version="opset1">
			<data keep_dims="true" />
			<rt_info>
				<attribute name="fused_names" version="0" value="/distilbert/transformer/layer.0/output_layer_norm/ReduceMean" />
			</rt_info>
			<input>
				<port id="0" precision="FP32">
					<dim>-1</dim>
					<dim>-1</dim>
					<dim>768</dim>
				</port>
				<port id="1" precision="I64">
					<dim>1</dim>
				</port>
			</input>
			<output>
				<port id="2" precision="FP32" names="/distilbert/transformer/layer.0/output_layer_norm/ReduceMean_output_0">
					<dim>-1</dim>
					<dim>-1</dim>
					<dim>1</dim>
				</port>
			</output>
		</layer>
		<layer id="165" name="/distilbert/transformer/layer.0/output_layer_norm/Sub" type="Subtract" version="opset1">
			<data auto_broadcast="numpy" />
			<rt_info>
				<attribute name="fused_names" version="0" value="/distilbert/transformer/layer.0/output_layer_norm/Sub" />
			</rt_info>
			<input>
				<port id="0" precision="FP32">
					<dim>-1</dim>
					<dim>-1</dim>
					<dim>768</dim>
				</port>
				<port id="1" precision="FP32">
					<dim>-1</dim>
					<dim>-1</dim>
					<dim>1</dim>
				</port>
			</input>
			<output>
				<port id="2" precision="FP32" names="/distilbert/transformer/layer.0/output_layer_norm/Sub_output_0">
					<dim>-1</dim>
					<dim>-1</dim>
					<dim>768</dim>
				</port>
			</output>
		</layer>
		<layer id="166" name="/distilbert/transformer/layer.0/output_layer_norm/Constant" type="Const" version="opset1">
			<data element_type="f32" shape="" offset="90763296" size="4" />
			<rt_info>
				<attribute name="fused_names" version="0" value="/distilbert/transformer/layer.0/output_layer_norm/Constant" />
			</rt_info>
			<output>
				<port id="0" precision="FP32" names="/distilbert/transformer/layer.0/output_layer_norm/Constant_output_0" />
			</output>
		</layer>
		<layer id="167" name="/distilbert/transformer/layer.0/output_layer_norm/Pow" type="Power" version="opset1">
			<data auto_broadcast="numpy" />
			<rt_info>
				<attribute name="fused_names" version="0" value="/distilbert/transformer/layer.0/output_layer_norm/Pow" />
			</rt_info>
			<input>
				<port id="0" precision="FP32">
					<dim>-1</dim>
					<dim>-1</dim>
					<dim>768</dim>
				</port>
				<port id="1" precision="FP32" />
			</input>
			<output>
				<port id="2" precision="FP32" names="/distilbert/transformer/layer.0/output_layer_norm/Pow_output_0">
					<dim>-1</dim>
					<dim>-1</dim>
					<dim>768</dim>
				</port>
			</output>
		</layer>
		<layer id="168" name="Constant_255364" type="Const" version="opset1">
			<data element_type="i64" shape="1" offset="90763288" size="8" />
			<rt_info>
				<attribute name="fused_names" version="0" value="Constant_255364" />
			</rt_info>
			<output>
				<port id="0" precision="I64">
					<dim>1</dim>
				</port>
			</output>
		</layer>
		<layer id="169" name="/distilbert/transformer/layer.0/output_layer_norm/ReduceMean_1" type="ReduceMean" version="opset1">
			<data keep_dims="true" />
			<rt_info>
				<attribute name="fused_names" version="0" value="/distilbert/transformer/layer.0/output_layer_norm/ReduceMean_1" />
			</rt_info>
			<input>
				<port id="0" precision="FP32">
					<dim>-1</dim>
					<dim>-1</dim>
					<dim>768</dim>
				</port>
				<port id="1" precision="I64">
					<dim>1</dim>
				</port>
			</input>
			<output>
				<port id="2" precision="FP32" names="/distilbert/transformer/layer.0/output_layer_norm/ReduceMean_1_output_0">
					<dim>-1</dim>
					<dim>-1</dim>
					<dim>1</dim>
				</port>
			</output>
		</layer>
		<layer id="170" name="/distilbert/transformer/layer.0/output_layer_norm/Constant_1" type="Const" version="opset1">
			<data element_type="f32" shape="" offset="90763300" size="4" />
			<rt_info>
				<attribute name="fused_names" version="0" value="/distilbert/transformer/layer.0/output_layer_norm/Constant_1" />
			</rt_info>
			<output>
				<port id="0" precision="FP32" names="/distilbert/transformer/layer.0/output_layer_norm/Constant_1_output_0" />
			</output>
		</layer>
		<layer id="171" name="/distilbert/transformer/layer.0/output_layer_norm/Add" type="Add" version="opset1">
			<data auto_broadcast="numpy" />
			<rt_info>
				<attribute name="fused_names" version="0" value="/distilbert/transformer/layer.0/output_layer_norm/Add" />
			</rt_info>
			<input>
				<port id="0" precision="FP32">
					<dim>-1</dim>
					<dim>-1</dim>
					<dim>1</dim>
				</port>
				<port id="1" precision="FP32" />
			</input>
			<output>
				<port id="2" precision="FP32" names="/distilbert/transformer/layer.0/output_layer_norm/Add_output_0">
					<dim>-1</dim>
					<dim>-1</dim>
					<dim>1</dim>
				</port>
			</output>
		</layer>
		<layer id="172" name="/distilbert/transformer/layer.0/output_layer_norm/Sqrt" type="Sqrt" version="opset1">
			<rt_info>
				<attribute name="fused_names" version="0" value="/distilbert/transformer/layer.0/output_layer_norm/Sqrt" />
			</rt_info>
			<input>
				<port id="0" precision="FP32">
					<dim>-1</dim>
					<dim>-1</dim>
					<dim>1</dim>
				</port>
			</input>
			<output>
				<port id="1" precision="FP32" names="/distilbert/transformer/layer.0/output_layer_norm/Sqrt_output_0">
					<dim>-1</dim>
					<dim>-1</dim>
					<dim>1</dim>
				</port>
			</output>
		</layer>
		<layer id="173" name="/distilbert/transformer/layer.0/output_layer_norm/Div" type="Divide" version="opset1">
			<data auto_broadcast="numpy" m_pythondiv="true" />
			<rt_info>
				<attribute name="fused_names" version="0" value="/distilbert/transformer/layer.0/output_layer_norm/Div" />
			</rt_info>
			<input>
				<port id="0" precision="FP32">
					<dim>-1</dim>
					<dim>-1</dim>
					<dim>768</dim>
				</port>
				<port id="1" precision="FP32">
					<dim>-1</dim>
					<dim>-1</dim>
					<dim>1</dim>
				</port>
			</input>
			<output>
				<port id="2" precision="FP32" names="/distilbert/transformer/layer.0/output_layer_norm/Div_output_0">
					<dim>-1</dim>
					<dim>-1</dim>
					<dim>768</dim>
				</port>
			</output>
		</layer>
		<layer id="174" name="distilbert.transformer.layer.0.output_layer_norm.weight" type="Const" version="opset1">
			<data element_type="f32" shape="768" offset="119096468" size="3072" />
			<rt_info>
				<attribute name="fused_names" version="0" value="distilbert.transformer.layer.0.output_layer_norm.weight" />
			</rt_info>
			<output>
				<port id="0" precision="FP32" names="distilbert.transformer.layer.0.output_layer_norm.weight">
					<dim>768</dim>
				</port>
			</output>
		</layer>
		<layer id="175" name="/distilbert/transformer/layer.0/output_layer_norm/Mul" type="Multiply" version="opset1">
			<data auto_broadcast="numpy" />
			<rt_info>
				<attribute name="fused_names" version="0" value="/distilbert/transformer/layer.0/output_layer_norm/Mul" />
			</rt_info>
			<input>
				<port id="0" precision="FP32">
					<dim>-1</dim>
					<dim>-1</dim>
					<dim>768</dim>
				</port>
				<port id="1" precision="FP32">
					<dim>768</dim>
				</port>
			</input>
			<output>
				<port id="2" precision="FP32" names="/distilbert/transformer/layer.0/output_layer_norm/Mul_output_0">
					<dim>-1</dim>
					<dim>-1</dim>
					<dim>768</dim>
				</port>
			</output>
		</layer>
		<layer id="176" name="distilbert.transformer.layer.0.output_layer_norm.bias" type="Const" version="opset1">
			<data element_type="f32" shape="768" offset="119099540" size="3072" />
			<rt_info>
				<attribute name="fused_names" version="0" value="distilbert.transformer.layer.0.output_layer_norm.bias" />
			</rt_info>
			<output>
				<port id="0" precision="FP32" names="distilbert.transformer.layer.0.output_layer_norm.bias">
					<dim>768</dim>
				</port>
			</output>
		</layer>
		<layer id="177" name="/distilbert/transformer/layer.0/output_layer_norm/Add_1" type="Add" version="opset1">
			<data auto_broadcast="numpy" />
			<rt_info>
				<attribute name="fused_names" version="0" value="/distilbert/transformer/layer.0/output_layer_norm/Add_1" />
			</rt_info>
			<input>
				<port id="0" precision="FP32">
					<dim>-1</dim>
					<dim>-1</dim>
					<dim>768</dim>
				</port>
				<port id="1" precision="FP32">
					<dim>768</dim>
				</port>
			</input>
			<output>
				<port id="2" precision="FP32" names="/distilbert/transformer/layer.0/output_layer_norm/Add_1_output_0">
					<dim>-1</dim>
					<dim>-1</dim>
					<dim>768</dim>
				</port>
			</output>
		</layer>
		<layer id="178" name="/distilbert/transformer/layer.1/attention/Shape" type="ShapeOf" version="opset3">
			<data output_type="i64" />
			<rt_info>
				<attribute name="fused_names" version="0" value="/distilbert/transformer/layer.1/attention/Shape" />
			</rt_info>
			<input>
				<port id="0" precision="FP32">
					<dim>-1</dim>
					<dim>-1</dim>
					<dim>768</dim>
				</port>
			</input>
			<output>
				<port id="1" precision="I64" names="/distilbert/transformer/layer.1/attention/Shape_output_0">
					<dim>3</dim>
				</port>
			</output>
		</layer>
		<layer id="179" name="/distilbert/transformer/layer.1/attention/Constant" type="Const" version="opset1">
			<data element_type="i64" shape="" offset="18440" size="8" />
			<rt_info>
				<attribute name="fused_names" version="0" value="/distilbert/transformer/layer.1/attention/Constant" />
			</rt_info>
			<output>
				<port id="0" precision="I64" names="/distilbert/transformer/layer.1/attention/Constant_output_0" />
			</output>
		</layer>
		<layer id="180" name="Constant_255374" type="Const" version="opset1">
			<data element_type="i64" shape="" offset="18440" size="8" />
			<rt_info>
				<attribute name="fused_names" version="0" value="Constant_255374" />
			</rt_info>
			<output>
				<port id="0" precision="I64" />
			</output>
		</layer>
		<layer id="181" name="/distilbert/transformer/layer.1/attention/Gather" type="Gather" version="opset8">
			<data batch_dims="0" />
			<rt_info>
				<attribute name="fused_names" version="0" value="/distilbert/transformer/layer.1/attention/Constant, /distilbert/transformer/layer.1/attention/Gather, Constant_255374" />
			</rt_info>
			<input>
				<port id="0" precision="I64">
					<dim>3</dim>
				</port>
				<port id="1" precision="I64" />
				<port id="2" precision="I64" />
			</input>
			<output>
				<port id="3" precision="I64" names="/distilbert/transformer/layer.1/attention/Gather_output_0" />
			</output>
		</layer>
		<layer id="182" name="Constant_255434" type="Const" version="opset1">
			<data element_type="i64" shape="1" offset="18440" size="8" />
			<rt_info>
				<attribute name="fused_names" version="0" value="Constant_255434" />
			</rt_info>
			<output>
				<port id="0" precision="I64">
					<dim>1</dim>
				</port>
			</output>
		</layer>
		<layer id="183" name="/distilbert/transformer/layer.1/attention/Unsqueeze_3" type="Unsqueeze" version="opset1">
			<rt_info>
				<attribute name="fused_names" version="0" value="/distilbert/transformer/layer.1/attention/Unsqueeze_3, Constant_255434" />
			</rt_info>
			<input>
				<port id="0" precision="I64" />
				<port id="1" precision="I64">
					<dim>1</dim>
				</port>
			</input>
			<output>
				<port id="2" precision="I64" names="/distilbert/transformer/layer.1/attention/Unsqueeze_3_output_0">
					<dim>1</dim>
				</port>
			</output>
		</layer>
		<layer id="184" name="/distilbert/transformer/layer.1/attention/Constant_12" type="Const" version="opset1">
			<data element_type="i64" shape="1" offset="90763280" size="8" />
			<rt_info>
				<attribute name="fused_names" version="0" value="/distilbert/transformer/layer.1/attention/Constant_12" />
			</rt_info>
			<output>
				<port id="0" precision="I64" names="/distilbert/transformer/layer.1/attention/Constant_12_output_0">
					<dim>1</dim>
				</port>
			</output>
		</layer>
		<layer id="185" name="/distilbert/transformer/layer.1/attention/Constant_13" type="Const" version="opset1">
			<data element_type="i64" shape="1" offset="90763280" size="8" />
			<rt_info>
				<attribute name="fused_names" version="0" value="/distilbert/transformer/layer.1/attention/Constant_13" />
			</rt_info>
			<output>
				<port id="0" precision="I64" names="/distilbert/transformer/layer.1/attention/Constant_13_output_0">
					<dim>1</dim>
				</port>
			</output>
		</layer>
		<layer id="186" name="/distilbert/transformer/layer.1/attention/Shape_1" type="ShapeOf" version="opset3">
			<data output_type="i64" />
			<rt_info>
				<attribute name="fused_names" version="0" value="/distilbert/transformer/layer.1/attention/Shape_1" />
			</rt_info>
			<input>
				<port id="0" precision="FP32">
					<dim>-1</dim>
					<dim>-1</dim>
					<dim>768</dim>
				</port>
			</input>
			<output>
				<port id="1" precision="I64" names="/distilbert/transformer/layer.1/attention/Shape_1_output_0">
					<dim>3</dim>
				</port>
			</output>
		</layer>
		<layer id="187" name="/distilbert/transformer/layer.1/attention/Constant_1" type="Const" version="opset1">
			<data element_type="i64" shape="" offset="90763280" size="8" />
			<rt_info>
				<attribute name="fused_names" version="0" value="/distilbert/transformer/layer.1/attention/Constant_1" />
			</rt_info>
			<output>
				<port id="0" precision="I64" names="/distilbert/transformer/layer.1/attention/Constant_1_output_0" />
			</output>
		</layer>
		<layer id="188" name="Constant_255378" type="Const" version="opset1">
			<data element_type="i64" shape="" offset="18440" size="8" />
			<rt_info>
				<attribute name="fused_names" version="0" value="Constant_255378" />
			</rt_info>
			<output>
				<port id="0" precision="I64" />
			</output>
		</layer>
		<layer id="189" name="/distilbert/transformer/layer.1/attention/Gather_1" type="Gather" version="opset8">
			<data batch_dims="0" />
			<rt_info>
				<attribute name="fused_names" version="0" value="/distilbert/transformer/layer.1/attention/Constant_1, /distilbert/transformer/layer.1/attention/Gather_1, Constant_255378" />
			</rt_info>
			<input>
				<port id="0" precision="I64">
					<dim>3</dim>
				</port>
				<port id="1" precision="I64" />
				<port id="2" precision="I64" />
			</input>
			<output>
				<port id="3" precision="I64" names="/distilbert/transformer/layer.1/attention/Gather_1_output_0" />
			</output>
		</layer>
		<layer id="190" name="Constant_255438" type="Const" version="opset1">
			<data element_type="i64" shape="1" offset="18440" size="8" />
			<rt_info>
				<attribute name="fused_names" version="0" value="Constant_255438" />
			</rt_info>
			<output>
				<port id="0" precision="I64">
					<dim>1</dim>
				</port>
			</output>
		</layer>
		<layer id="191" name="/distilbert/transformer/layer.1/attention/Unsqueeze_4" type="Unsqueeze" version="opset1">
			<rt_info>
				<attribute name="fused_names" version="0" value="/distilbert/transformer/layer.1/attention/Unsqueeze_4, Constant_255438" />
			</rt_info>
			<input>
				<port id="0" precision="I64" />
				<port id="1" precision="I64">
					<dim>1</dim>
				</port>
			</input>
			<output>
				<port id="2" precision="I64" names="/distilbert/transformer/layer.1/attention/Unsqueeze_4_output_0">
					<dim>1</dim>
				</port>
			</output>
		</layer>
		<layer id="192" name="/distilbert/transformer/layer.1/attention/Concat_3" type="Concat" version="opset1">
			<data axis="0" />
			<rt_info>
				<attribute name="fused_names" version="0" value="/distilbert/transformer/layer.1/attention/Concat_3, /distilbert/transformer/layer.1/attention/Constant_12, /distilbert/transformer/layer.1/attention/Constant_13" />
			</rt_info>
			<input>
				<port id="0" precision="I64">
					<dim>1</dim>
				</port>
				<port id="1" precision="I64">
					<dim>1</dim>
				</port>
				<port id="2" precision="I64">
					<dim>1</dim>
				</port>
				<port id="3" precision="I64">
					<dim>1</dim>
				</port>
			</input>
			<output>
				<port id="4" precision="I64" names="/distilbert/transformer/layer.1/attention/Concat_3_output_0">
					<dim>4</dim>
				</port>
			</output>
		</layer>
		<layer id="193" name="/distilbert/transformer/layer.1/attention/Reshape_3" type="Reshape" version="opset1">
			<data special_zero="true" />
			<rt_info>
				<attribute name="fused_names" version="0" value="/distilbert/transformer/layer.1/attention/Reshape_3" />
			</rt_info>
			<input>
				<port id="0" precision="BOOL">
					<dim>-1</dim>
					<dim>-1</dim>
				</port>
				<port id="1" precision="I64">
					<dim>4</dim>
				</port>
			</input>
			<output>
				<port id="2" precision="BOOL" names="/distilbert/transformer/layer.1/attention/Reshape_3_output_0">
					<dim>-1</dim>
					<dim>1</dim>
					<dim>1</dim>
					<dim>-1</dim>
				</port>
			</output>
		</layer>
		<layer id="194" name="distilbert.transformer.layer.1.attention.q_lin.bias" type="Const" version="opset1">
			<data element_type="f32" shape="768" offset="119102612" size="3072" />
			<rt_info>
				<attribute name="fused_names" version="0" value="distilbert.transformer.layer.1.attention.q_lin.bias" />
			</rt_info>
			<output>
				<port id="0" precision="FP32" names="distilbert.transformer.layer.1.attention.q_lin.bias">
					<dim>768</dim>
				</port>
			</output>
		</layer>
		<layer id="195" name="onnx::MatMul_757" type="Const" version="opset1">
			<data element_type="f32" shape="768, 768" offset="119105684" size="2359296" />
			<rt_info>
				<attribute name="fused_names" version="0" value="onnx::MatMul_757" />
			</rt_info>
			<output>
				<port id="0" precision="FP32" names="onnx::MatMul_757">
					<dim>768</dim>
					<dim>768</dim>
				</port>
			</output>
		</layer>
		<layer id="196" name="/distilbert/transformer/layer.1/attention/q_lin/MatMul" type="MatMul" version="opset1">
			<data transpose_a="false" transpose_b="false" />
			<rt_info>
				<attribute name="fused_names" version="0" value="/distilbert/transformer/layer.1/attention/q_lin/MatMul" />
			</rt_info>
			<input>
				<port id="0" precision="FP32">
					<dim>-1</dim>
					<dim>-1</dim>
					<dim>768</dim>
				</port>
				<port id="1" precision="FP32">
					<dim>768</dim>
					<dim>768</dim>
				</port>
			</input>
			<output>
				<port id="2" precision="FP32" names="/distilbert/transformer/layer.1/attention/q_lin/MatMul_output_0">
					<dim>-1</dim>
					<dim>-1</dim>
					<dim>768</dim>
				</port>
			</output>
		</layer>
		<layer id="197" name="/distilbert/transformer/layer.1/attention/q_lin/Add" type="Add" version="opset1">
			<data auto_broadcast="numpy" />
			<rt_info>
				<attribute name="fused_names" version="0" value="/distilbert/transformer/layer.1/attention/q_lin/Add" />
			</rt_info>
			<input>
				<port id="0" precision="FP32">
					<dim>768</dim>
				</port>
				<port id="1" precision="FP32">
					<dim>-1</dim>
					<dim>-1</dim>
					<dim>768</dim>
				</port>
			</input>
			<output>
				<port id="2" precision="FP32" names="/distilbert/transformer/layer.1/attention/q_lin/Add_output_0">
					<dim>-1</dim>
					<dim>-1</dim>
					<dim>768</dim>
				</port>
			</output>
		</layer>
		<layer id="198" name="Constant_255382" type="Const" version="opset1">
			<data element_type="i64" shape="1" offset="18440" size="8" />
			<rt_info>
				<attribute name="fused_names" version="0" value="Constant_255382" />
			</rt_info>
			<output>
				<port id="0" precision="I64">
					<dim>1</dim>
				</port>
			</output>
		</layer>
		<layer id="199" name="/distilbert/transformer/layer.1/attention/Unsqueeze" type="Unsqueeze" version="opset1">
			<rt_info>
				<attribute name="fused_names" version="0" value="/distilbert/transformer/layer.1/attention/Unsqueeze, Constant_255382" />
			</rt_info>
			<input>
				<port id="0" precision="I64" />
				<port id="1" precision="I64">
					<dim>1</dim>
				</port>
			</input>
			<output>
				<port id="2" precision="I64" names="/distilbert/transformer/layer.1/attention/Unsqueeze_output_0">
					<dim>1</dim>
				</port>
			</output>
		</layer>
		<layer id="200" name="/distilbert/transformer/layer.1/attention/Constant_2" type="Const" version="opset1">
			<data element_type="i64" shape="1" offset="90763288" size="8" />
			<rt_info>
				<attribute name="fused_names" version="0" value="/distilbert/transformer/layer.1/attention/Constant_2" />
			</rt_info>
			<output>
				<port id="0" precision="I64" names="/distilbert/transformer/layer.1/attention/Constant_2_output_0">
					<dim>1</dim>
				</port>
			</output>
		</layer>
		<layer id="201" name="/distilbert/transformer/layer.1/attention/Constant_3" type="Const" version="opset1">
			<data element_type="i64" shape="1" offset="93131816" size="8" />
			<rt_info>
				<attribute name="fused_names" version="0" value="/distilbert/transformer/layer.1/attention/Constant_3" />
			</rt_info>
			<output>
				<port id="0" precision="I64" names="/distilbert/transformer/layer.1/attention/Constant_3_output_0">
					<dim>1</dim>
				</port>
			</output>
		</layer>
		<layer id="202" name="/distilbert/transformer/layer.1/attention/Constant_4" type="Const" version="opset1">
			<data element_type="i64" shape="1" offset="93131824" size="8" />
			<rt_info>
				<attribute name="fused_names" version="0" value="/distilbert/transformer/layer.1/attention/Constant_4" />
			</rt_info>
			<output>
				<port id="0" precision="I64" names="/distilbert/transformer/layer.1/attention/Constant_4_output_0">
					<dim>1</dim>
				</port>
			</output>
		</layer>
		<layer id="203" name="/distilbert/transformer/layer.1/attention/Concat" type="Concat" version="opset1">
			<data axis="0" />
			<rt_info>
				<attribute name="fused_names" version="0" value="/distilbert/transformer/layer.1/attention/Concat, /distilbert/transformer/layer.1/attention/Constant_2, /distilbert/transformer/layer.1/attention/Constant_3, /distilbert/transformer/layer.1/attention/Constant_4" />
			</rt_info>
			<input>
				<port id="0" precision="I64">
					<dim>1</dim>
				</port>
				<port id="1" precision="I64">
					<dim>1</dim>
				</port>
				<port id="2" precision="I64">
					<dim>1</dim>
				</port>
				<port id="3" precision="I64">
					<dim>1</dim>
				</port>
			</input>
			<output>
				<port id="4" precision="I64" names="/distilbert/transformer/layer.1/attention/Concat_output_0">
					<dim>4</dim>
				</port>
			</output>
		</layer>
		<layer id="204" name="/distilbert/transformer/layer.1/attention/Reshape" type="Reshape" version="opset1">
			<data special_zero="true" />
			<rt_info>
				<attribute name="fused_names" version="0" value="/distilbert/transformer/layer.1/attention/Reshape" />
			</rt_info>
			<input>
				<port id="0" precision="FP32">
					<dim>-1</dim>
					<dim>-1</dim>
					<dim>768</dim>
				</port>
				<port id="1" precision="I64">
					<dim>4</dim>
				</port>
			</input>
			<output>
				<port id="2" precision="FP32" names="/distilbert/transformer/layer.1/attention/Reshape_output_0">
					<dim>-1</dim>
					<dim>-1</dim>
					<dim>12</dim>
					<dim>64</dim>
				</port>
			</output>
		</layer>
		<layer id="205" name="Constant_255407" type="Const" version="opset1">
			<data element_type="i64" shape="4" offset="93131832" size="32" />
			<rt_info>
				<attribute name="fused_names" version="0" value="Constant_255407" />
			</rt_info>
			<output>
				<port id="0" precision="I64">
					<dim>4</dim>
				</port>
			</output>
		</layer>
		<layer id="206" name="/distilbert/transformer/layer.1/attention/Transpose" type="Transpose" version="opset1">
			<rt_info>
				<attribute name="fused_names" version="0" value="/distilbert/transformer/layer.1/attention/Transpose" />
			</rt_info>
			<input>
				<port id="0" precision="FP32">
					<dim>-1</dim>
					<dim>-1</dim>
					<dim>12</dim>
					<dim>64</dim>
				</port>
				<port id="1" precision="I64">
					<dim>4</dim>
				</port>
			</input>
			<output>
				<port id="2" precision="FP32" names="/distilbert/transformer/layer.1/attention/Transpose_output_0">
					<dim>-1</dim>
					<dim>12</dim>
					<dim>-1</dim>
					<dim>64</dim>
				</port>
			</output>
		</layer>
		<layer id="207" name="/distilbert/transformer/layer.1/attention/Constant_11" type="Const" version="opset1">
			<data element_type="f32" shape="" offset="93131864" size="4" />
			<rt_info>
				<attribute name="fused_names" version="0" value="/distilbert/transformer/layer.1/attention/Constant_11" />
			</rt_info>
			<output>
				<port id="0" precision="FP32" names="/distilbert/transformer/layer.1/attention/Constant_11_output_0" />
			</output>
		</layer>
		<layer id="208" name="/distilbert/transformer/layer.1/attention/Div" type="Divide" version="opset1">
			<data auto_broadcast="numpy" m_pythondiv="true" />
			<rt_info>
				<attribute name="fused_names" version="0" value="/distilbert/transformer/layer.1/attention/Div" />
			</rt_info>
			<input>
				<port id="0" precision="FP32">
					<dim>-1</dim>
					<dim>12</dim>
					<dim>-1</dim>
					<dim>64</dim>
				</port>
				<port id="1" precision="FP32" />
			</input>
			<output>
				<port id="2" precision="FP32" names="/distilbert/transformer/layer.1/attention/Div_output_0">
					<dim>-1</dim>
					<dim>12</dim>
					<dim>-1</dim>
					<dim>64</dim>
				</port>
			</output>
		</layer>
		<layer id="209" name="distilbert.transformer.layer.1.attention.k_lin.bias" type="Const" version="opset1">
			<data element_type="f32" shape="768" offset="121464980" size="3072" />
			<rt_info>
				<attribute name="fused_names" version="0" value="distilbert.transformer.layer.1.attention.k_lin.bias" />
			</rt_info>
			<output>
				<port id="0" precision="FP32" names="distilbert.transformer.layer.1.attention.k_lin.bias">
					<dim>768</dim>
				</port>
			</output>
		</layer>
		<layer id="210" name="onnx::MatMul_767" type="Const" version="opset1">
			<data element_type="f32" shape="768, 768" offset="121468052" size="2359296" />
			<rt_info>
				<attribute name="fused_names" version="0" value="onnx::MatMul_767" />
			</rt_info>
			<output>
				<port id="0" precision="FP32" names="onnx::MatMul_767">
					<dim>768</dim>
					<dim>768</dim>
				</port>
			</output>
		</layer>
		<layer id="211" name="/distilbert/transformer/layer.1/attention/k_lin/MatMul" type="MatMul" version="opset1">
			<data transpose_a="false" transpose_b="false" />
			<rt_info>
				<attribute name="fused_names" version="0" value="/distilbert/transformer/layer.1/attention/k_lin/MatMul" />
			</rt_info>
			<input>
				<port id="0" precision="FP32">
					<dim>-1</dim>
					<dim>-1</dim>
					<dim>768</dim>
				</port>
				<port id="1" precision="FP32">
					<dim>768</dim>
					<dim>768</dim>
				</port>
			</input>
			<output>
				<port id="2" precision="FP32" names="/distilbert/transformer/layer.1/attention/k_lin/MatMul_output_0">
					<dim>-1</dim>
					<dim>-1</dim>
					<dim>768</dim>
				</port>
			</output>
		</layer>
		<layer id="212" name="/distilbert/transformer/layer.1/attention/k_lin/Add" type="Add" version="opset1">
			<data auto_broadcast="numpy" />
			<rt_info>
				<attribute name="fused_names" version="0" value="/distilbert/transformer/layer.1/attention/k_lin/Add" />
			</rt_info>
			<input>
				<port id="0" precision="FP32">
					<dim>768</dim>
				</port>
				<port id="1" precision="FP32">
					<dim>-1</dim>
					<dim>-1</dim>
					<dim>768</dim>
				</port>
			</input>
			<output>
				<port id="2" precision="FP32" names="/distilbert/transformer/layer.1/attention/k_lin/Add_output_0">
					<dim>-1</dim>
					<dim>-1</dim>
					<dim>768</dim>
				</port>
			</output>
		</layer>
		<layer id="213" name="Constant_255388" type="Const" version="opset1">
			<data element_type="i64" shape="1" offset="18440" size="8" />
			<rt_info>
				<attribute name="fused_names" version="0" value="Constant_255388" />
			</rt_info>
			<output>
				<port id="0" precision="I64">
					<dim>1</dim>
				</port>
			</output>
		</layer>
		<layer id="214" name="/distilbert/transformer/layer.1/attention/Unsqueeze_1" type="Unsqueeze" version="opset1">
			<rt_info>
				<attribute name="fused_names" version="0" value="/distilbert/transformer/layer.1/attention/Unsqueeze_1, Constant_255388" />
			</rt_info>
			<input>
				<port id="0" precision="I64" />
				<port id="1" precision="I64">
					<dim>1</dim>
				</port>
			</input>
			<output>
				<port id="2" precision="I64" names="/distilbert/transformer/layer.1/attention/Unsqueeze_1_output_0">
					<dim>1</dim>
				</port>
			</output>
		</layer>
		<layer id="215" name="/distilbert/transformer/layer.1/attention/Constant_5" type="Const" version="opset1">
			<data element_type="i64" shape="1" offset="90763288" size="8" />
			<rt_info>
				<attribute name="fused_names" version="0" value="/distilbert/transformer/layer.1/attention/Constant_5" />
			</rt_info>
			<output>
				<port id="0" precision="I64" names="/distilbert/transformer/layer.1/attention/Constant_5_output_0">
					<dim>1</dim>
				</port>
			</output>
		</layer>
		<layer id="216" name="/distilbert/transformer/layer.1/attention/Constant_6" type="Const" version="opset1">
			<data element_type="i64" shape="1" offset="93131816" size="8" />
			<rt_info>
				<attribute name="fused_names" version="0" value="/distilbert/transformer/layer.1/attention/Constant_6" />
			</rt_info>
			<output>
				<port id="0" precision="I64" names="/distilbert/transformer/layer.1/attention/Constant_6_output_0">
					<dim>1</dim>
				</port>
			</output>
		</layer>
		<layer id="217" name="/distilbert/transformer/layer.1/attention/Constant_7" type="Const" version="opset1">
			<data element_type="i64" shape="1" offset="93131824" size="8" />
			<rt_info>
				<attribute name="fused_names" version="0" value="/distilbert/transformer/layer.1/attention/Constant_7" />
			</rt_info>
			<output>
				<port id="0" precision="I64" names="/distilbert/transformer/layer.1/attention/Constant_7_output_0">
					<dim>1</dim>
				</port>
			</output>
		</layer>
		<layer id="218" name="/distilbert/transformer/layer.1/attention/Concat_1" type="Concat" version="opset1">
			<data axis="0" />
			<rt_info>
				<attribute name="fused_names" version="0" value="/distilbert/transformer/layer.1/attention/Concat_1, /distilbert/transformer/layer.1/attention/Constant_5, /distilbert/transformer/layer.1/attention/Constant_6, /distilbert/transformer/layer.1/attention/Constant_7" />
			</rt_info>
			<input>
				<port id="0" precision="I64">
					<dim>1</dim>
				</port>
				<port id="1" precision="I64">
					<dim>1</dim>
				</port>
				<port id="2" precision="I64">
					<dim>1</dim>
				</port>
				<port id="3" precision="I64">
					<dim>1</dim>
				</port>
			</input>
			<output>
				<port id="4" precision="I64" names="/distilbert/transformer/layer.1/attention/Concat_1_output_0">
					<dim>4</dim>
				</port>
			</output>
		</layer>
		<layer id="219" name="/distilbert/transformer/layer.1/attention/Reshape_1" type="Reshape" version="opset1">
			<data special_zero="true" />
			<rt_info>
				<attribute name="fused_names" version="0" value="/distilbert/transformer/layer.1/attention/Reshape_1" />
			</rt_info>
			<input>
				<port id="0" precision="FP32">
					<dim>-1</dim>
					<dim>-1</dim>
					<dim>768</dim>
				</port>
				<port id="1" precision="I64">
					<dim>4</dim>
				</port>
			</input>
			<output>
				<port id="2" precision="FP32" names="/distilbert/transformer/layer.1/attention/Reshape_1_output_0">
					<dim>-1</dim>
					<dim>-1</dim>
					<dim>12</dim>
					<dim>64</dim>
				</port>
			</output>
		</layer>
		<layer id="220" name="Constant_255431" type="Const" version="opset1">
			<data element_type="i64" shape="4" offset="95494236" size="32" />
			<rt_info>
				<attribute name="fused_names" version="0" value="Constant_255431" />
			</rt_info>
			<output>
				<port id="0" precision="I64">
					<dim>4</dim>
				</port>
			</output>
		</layer>
		<layer id="221" name="/distilbert/transformer/layer.1/attention/Transpose_2" type="Transpose" version="opset1">
			<rt_info>
				<attribute name="fused_names" version="0" value="/distilbert/transformer/layer.1/attention/Transpose_2" />
			</rt_info>
			<input>
				<port id="0" precision="FP32">
					<dim>-1</dim>
					<dim>-1</dim>
					<dim>12</dim>
					<dim>64</dim>
				</port>
				<port id="1" precision="I64">
					<dim>4</dim>
				</port>
			</input>
			<output>
				<port id="2" precision="FP32" names="/distilbert/transformer/layer.1/attention/Transpose_2_output_0">
					<dim>-1</dim>
					<dim>12</dim>
					<dim>64</dim>
					<dim>-1</dim>
				</port>
			</output>
		</layer>
		<layer id="222" name="/distilbert/transformer/layer.1/attention/MatMul" type="MatMul" version="opset1">
			<data transpose_a="false" transpose_b="false" />
			<rt_info>
				<attribute name="fused_names" version="0" value="/distilbert/transformer/layer.1/attention/MatMul" />
			</rt_info>
			<input>
				<port id="0" precision="FP32">
					<dim>-1</dim>
					<dim>12</dim>
					<dim>-1</dim>
					<dim>64</dim>
				</port>
				<port id="1" precision="FP32">
					<dim>-1</dim>
					<dim>12</dim>
					<dim>64</dim>
					<dim>-1</dim>
				</port>
			</input>
			<output>
				<port id="2" precision="FP32" names="/distilbert/transformer/layer.1/attention/MatMul_output_0">
					<dim>-1</dim>
					<dim>12</dim>
					<dim>-1</dim>
					<dim>-1</dim>
				</port>
			</output>
		</layer>
		<layer id="223" name="/distilbert/transformer/layer.1/attention/Shape_2" type="ShapeOf" version="opset3">
			<data output_type="i64" />
			<rt_info>
				<attribute name="fused_names" version="0" value="/distilbert/transformer/layer.1/attention/Shape_2" />
			</rt_info>
			<input>
				<port id="0" precision="FP32">
					<dim>-1</dim>
					<dim>12</dim>
					<dim>-1</dim>
					<dim>-1</dim>
				</port>
			</input>
			<output>
				<port id="1" precision="I64" names="/distilbert/transformer/layer.1/attention/Shape_2_output_0">
					<dim>4</dim>
				</port>
			</output>
		</layer>
		<layer id="224" name="/distilbert/transformer/layer.1/attention/Expand" type="Broadcast" version="opset3">
			<data mode="bidirectional" />
			<rt_info>
				<attribute name="fused_names" version="0" value="/distilbert/transformer/layer.1/attention/Expand" />
			</rt_info>
			<input>
				<port id="0" precision="BOOL">
					<dim>-1</dim>
					<dim>1</dim>
					<dim>1</dim>
					<dim>-1</dim>
				</port>
				<port id="1" precision="I64">
					<dim>4</dim>
				</port>
			</input>
			<output>
				<port id="2" precision="BOOL" names="/distilbert/transformer/layer.1/attention/Expand_output_0">
					<dim>-1</dim>
					<dim>12</dim>
					<dim>-1</dim>
					<dim>-1</dim>
				</port>
			</output>
		</layer>
		<layer id="225" name="/distilbert/transformer/layer.1/attention/Cast" type="Convert" version="opset1">
			<data destination_type="boolean" />
			<rt_info>
				<attribute name="fused_names" version="0" value="/distilbert/transformer/layer.1/attention/Cast" />
			</rt_info>
			<input>
				<port id="0" precision="BOOL">
					<dim>-1</dim>
					<dim>12</dim>
					<dim>-1</dim>
					<dim>-1</dim>
				</port>
			</input>
			<output>
				<port id="1" precision="BOOL" names="/distilbert/transformer/layer.1/attention/Cast_output_0">
					<dim>-1</dim>
					<dim>12</dim>
					<dim>-1</dim>
					<dim>-1</dim>
				</port>
			</output>
		</layer>
		<layer id="226" name="/distilbert/transformer/layer.1/attention/Constant_14" type="Const" version="opset1">
			<data element_type="f32" shape="" offset="95494268" size="4" />
			<rt_info>
				<attribute name="fused_names" version="0" value="/distilbert/transformer/layer.1/attention/Constant_14" />
			</rt_info>
			<output>
				<port id="0" precision="FP32" names="/distilbert/transformer/layer.1/attention/Constant_14_output_0" />
			</output>
		</layer>
		<layer id="227" name="/distilbert/transformer/layer.1/attention/Where" type="Select" version="opset1">
			<data auto_broadcast="numpy" />
			<rt_info>
				<attribute name="fused_names" version="0" value="/distilbert/transformer/layer.1/attention/Where" />
			</rt_info>
			<input>
				<port id="0" precision="BOOL">
					<dim>-1</dim>
					<dim>12</dim>
					<dim>-1</dim>
					<dim>-1</dim>
				</port>
				<port id="1" precision="FP32" />
				<port id="2" precision="FP32">
					<dim>-1</dim>
					<dim>12</dim>
					<dim>-1</dim>
					<dim>-1</dim>
				</port>
			</input>
			<output>
				<port id="3" precision="FP32" names="/distilbert/transformer/layer.1/attention/Where_output_0">
					<dim>-1</dim>
					<dim>12</dim>
					<dim>-1</dim>
					<dim>-1</dim>
				</port>
			</output>
		</layer>
		<layer id="228" name="/distilbert/transformer/layer.1/attention/Softmax" type="SoftMax" version="opset8">
			<data axis="3" />
			<rt_info>
				<attribute name="fused_names" version="0" value="/distilbert/transformer/layer.1/attention/Softmax" />
			</rt_info>
			<input>
				<port id="0" precision="FP32">
					<dim>-1</dim>
					<dim>12</dim>
					<dim>-1</dim>
					<dim>-1</dim>
				</port>
			</input>
			<output>
				<port id="1" precision="FP32" names="/distilbert/transformer/layer.1/attention/Softmax_output_0">
					<dim>-1</dim>
					<dim>12</dim>
					<dim>-1</dim>
					<dim>-1</dim>
				</port>
			</output>
		</layer>
		<layer id="229" name="distilbert.transformer.layer.1.attention.v_lin.bias" type="Const" version="opset1">
			<data element_type="f32" shape="768" offset="123827348" size="3072" />
			<rt_info>
				<attribute name="fused_names" version="0" value="distilbert.transformer.layer.1.attention.v_lin.bias" />
			</rt_info>
			<output>
				<port id="0" precision="FP32" names="distilbert.transformer.layer.1.attention.v_lin.bias">
					<dim>768</dim>
				</port>
			</output>
		</layer>
		<layer id="230" name="onnx::MatMul_768" type="Const" version="opset1">
			<data element_type="f32" shape="768, 768" offset="123830420" size="2359296" />
			<rt_info>
				<attribute name="fused_names" version="0" value="onnx::MatMul_768" />
			</rt_info>
			<output>
				<port id="0" precision="FP32" names="onnx::MatMul_768">
					<dim>768</dim>
					<dim>768</dim>
				</port>
			</output>
		</layer>
		<layer id="231" name="/distilbert/transformer/layer.1/attention/v_lin/MatMul" type="MatMul" version="opset1">
			<data transpose_a="false" transpose_b="false" />
			<rt_info>
				<attribute name="fused_names" version="0" value="/distilbert/transformer/layer.1/attention/v_lin/MatMul" />
			</rt_info>
			<input>
				<port id="0" precision="FP32">
					<dim>-1</dim>
					<dim>-1</dim>
					<dim>768</dim>
				</port>
				<port id="1" precision="FP32">
					<dim>768</dim>
					<dim>768</dim>
				</port>
			</input>
			<output>
				<port id="2" precision="FP32" names="/distilbert/transformer/layer.1/attention/v_lin/MatMul_output_0">
					<dim>-1</dim>
					<dim>-1</dim>
					<dim>768</dim>
				</port>
			</output>
		</layer>
		<layer id="232" name="/distilbert/transformer/layer.1/attention/v_lin/Add" type="Add" version="opset1">
			<data auto_broadcast="numpy" />
			<rt_info>
				<attribute name="fused_names" version="0" value="/distilbert/transformer/layer.1/attention/v_lin/Add" />
			</rt_info>
			<input>
				<port id="0" precision="FP32">
					<dim>768</dim>
				</port>
				<port id="1" precision="FP32">
					<dim>-1</dim>
					<dim>-1</dim>
					<dim>768</dim>
				</port>
			</input>
			<output>
				<port id="2" precision="FP32" names="/distilbert/transformer/layer.1/attention/v_lin/Add_output_0">
					<dim>-1</dim>
					<dim>-1</dim>
					<dim>768</dim>
				</port>
			</output>
		</layer>
		<layer id="233" name="Constant_255394" type="Const" version="opset1">
			<data element_type="i64" shape="1" offset="18440" size="8" />
			<rt_info>
				<attribute name="fused_names" version="0" value="Constant_255394" />
			</rt_info>
			<output>
				<port id="0" precision="I64">
					<dim>1</dim>
				</port>
			</output>
		</layer>
		<layer id="234" name="/distilbert/transformer/layer.1/attention/Unsqueeze_2" type="Unsqueeze" version="opset1">
			<rt_info>
				<attribute name="fused_names" version="0" value="/distilbert/transformer/layer.1/attention/Unsqueeze_2, Constant_255394" />
			</rt_info>
			<input>
				<port id="0" precision="I64" />
				<port id="1" precision="I64">
					<dim>1</dim>
				</port>
			</input>
			<output>
				<port id="2" precision="I64" names="/distilbert/transformer/layer.1/attention/Unsqueeze_2_output_0">
					<dim>1</dim>
				</port>
			</output>
		</layer>
		<layer id="235" name="/distilbert/transformer/layer.1/attention/Constant_8" type="Const" version="opset1">
			<data element_type="i64" shape="1" offset="90763288" size="8" />
			<rt_info>
				<attribute name="fused_names" version="0" value="/distilbert/transformer/layer.1/attention/Constant_8" />
			</rt_info>
			<output>
				<port id="0" precision="I64" names="/distilbert/transformer/layer.1/attention/Constant_8_output_0">
					<dim>1</dim>
				</port>
			</output>
		</layer>
		<layer id="236" name="/distilbert/transformer/layer.1/attention/Constant_9" type="Const" version="opset1">
			<data element_type="i64" shape="1" offset="93131816" size="8" />
			<rt_info>
				<attribute name="fused_names" version="0" value="/distilbert/transformer/layer.1/attention/Constant_9" />
			</rt_info>
			<output>
				<port id="0" precision="I64" names="/distilbert/transformer/layer.1/attention/Constant_9_output_0">
					<dim>1</dim>
				</port>
			</output>
		</layer>
		<layer id="237" name="/distilbert/transformer/layer.1/attention/Constant_10" type="Const" version="opset1">
			<data element_type="i64" shape="1" offset="93131824" size="8" />
			<rt_info>
				<attribute name="fused_names" version="0" value="/distilbert/transformer/layer.1/attention/Constant_10" />
			</rt_info>
			<output>
				<port id="0" precision="I64" names="/distilbert/transformer/layer.1/attention/Constant_10_output_0">
					<dim>1</dim>
				</port>
			</output>
		</layer>
		<layer id="238" name="/distilbert/transformer/layer.1/attention/Concat_2" type="Concat" version="opset1">
			<data axis="0" />
			<rt_info>
				<attribute name="fused_names" version="0" value="/distilbert/transformer/layer.1/attention/Concat_2, /distilbert/transformer/layer.1/attention/Constant_10, /distilbert/transformer/layer.1/attention/Constant_8, /distilbert/transformer/layer.1/attention/Constant_9" />
			</rt_info>
			<input>
				<port id="0" precision="I64">
					<dim>1</dim>
				</port>
				<port id="1" precision="I64">
					<dim>1</dim>
				</port>
				<port id="2" precision="I64">
					<dim>1</dim>
				</port>
				<port id="3" precision="I64">
					<dim>1</dim>
				</port>
			</input>
			<output>
				<port id="4" precision="I64" names="/distilbert/transformer/layer.1/attention/Concat_2_output_0">
					<dim>4</dim>
				</port>
			</output>
		</layer>
		<layer id="239" name="/distilbert/transformer/layer.1/attention/Reshape_2" type="Reshape" version="opset1">
			<data special_zero="true" />
			<rt_info>
				<attribute name="fused_names" version="0" value="/distilbert/transformer/layer.1/attention/Reshape_2" />
			</rt_info>
			<input>
				<port id="0" precision="FP32">
					<dim>-1</dim>
					<dim>-1</dim>
					<dim>768</dim>
				</port>
				<port id="1" precision="I64">
					<dim>4</dim>
				</port>
			</input>
			<output>
				<port id="2" precision="FP32" names="/distilbert/transformer/layer.1/attention/Reshape_2_output_0">
					<dim>-1</dim>
					<dim>-1</dim>
					<dim>12</dim>
					<dim>64</dim>
				</port>
			</output>
		</layer>
		<layer id="240" name="Constant_255427" type="Const" version="opset1">
			<data element_type="i64" shape="4" offset="93131832" size="32" />
			<rt_info>
				<attribute name="fused_names" version="0" value="Constant_255427" />
			</rt_info>
			<output>
				<port id="0" precision="I64">
					<dim>4</dim>
				</port>
			</output>
		</layer>
		<layer id="241" name="/distilbert/transformer/layer.1/attention/Transpose_1" type="Transpose" version="opset1">
			<rt_info>
				<attribute name="fused_names" version="0" value="/distilbert/transformer/layer.1/attention/Transpose_1" />
			</rt_info>
			<input>
				<port id="0" precision="FP32">
					<dim>-1</dim>
					<dim>-1</dim>
					<dim>12</dim>
					<dim>64</dim>
				</port>
				<port id="1" precision="I64">
					<dim>4</dim>
				</port>
			</input>
			<output>
				<port id="2" precision="FP32" names="/distilbert/transformer/layer.1/attention/Transpose_1_output_0">
					<dim>-1</dim>
					<dim>12</dim>
					<dim>-1</dim>
					<dim>64</dim>
				</port>
			</output>
		</layer>
		<layer id="242" name="/distilbert/transformer/layer.1/attention/MatMul_1" type="MatMul" version="opset1">
			<data transpose_a="false" transpose_b="false" />
			<rt_info>
				<attribute name="fused_names" version="0" value="/distilbert/transformer/layer.1/attention/MatMul_1" />
			</rt_info>
			<input>
				<port id="0" precision="FP32">
					<dim>-1</dim>
					<dim>12</dim>
					<dim>-1</dim>
					<dim>-1</dim>
				</port>
				<port id="1" precision="FP32">
					<dim>-1</dim>
					<dim>12</dim>
					<dim>-1</dim>
					<dim>64</dim>
				</port>
			</input>
			<output>
				<port id="2" precision="FP32" names="/distilbert/transformer/layer.1/attention/MatMul_1_output_0">
					<dim>-1</dim>
					<dim>12</dim>
					<dim>-1</dim>
					<dim>64</dim>
				</port>
			</output>
		</layer>
		<layer id="243" name="Constant_255463" type="Const" version="opset1">
			<data element_type="i64" shape="4" offset="93131832" size="32" />
			<rt_info>
				<attribute name="fused_names" version="0" value="Constant_255463" />
			</rt_info>
			<output>
				<port id="0" precision="I64">
					<dim>4</dim>
				</port>
			</output>
		</layer>
		<layer id="244" name="/distilbert/transformer/layer.1/attention/Transpose_3" type="Transpose" version="opset1">
			<rt_info>
				<attribute name="fused_names" version="0" value="/distilbert/transformer/layer.1/attention/Transpose_3" />
			</rt_info>
			<input>
				<port id="0" precision="FP32">
					<dim>-1</dim>
					<dim>12</dim>
					<dim>-1</dim>
					<dim>64</dim>
				</port>
				<port id="1" precision="I64">
					<dim>4</dim>
				</port>
			</input>
			<output>
				<port id="2" precision="FP32" names="/distilbert/transformer/layer.1/attention/Transpose_3_output_0">
					<dim>-1</dim>
					<dim>-1</dim>
					<dim>12</dim>
					<dim>64</dim>
				</port>
			</output>
		</layer>
		<layer id="245" name="Constant_255465" type="Const" version="opset1">
			<data element_type="i64" shape="1" offset="18440" size="8" />
			<rt_info>
				<attribute name="fused_names" version="0" value="Constant_255465" />
			</rt_info>
			<output>
				<port id="0" precision="I64">
					<dim>1</dim>
				</port>
			</output>
		</layer>
		<layer id="246" name="/distilbert/transformer/layer.1/attention/Unsqueeze_5" type="Unsqueeze" version="opset1">
			<rt_info>
				<attribute name="fused_names" version="0" value="/distilbert/transformer/layer.1/attention/Unsqueeze_5, Constant_255465" />
			</rt_info>
			<input>
				<port id="0" precision="I64" />
				<port id="1" precision="I64">
					<dim>1</dim>
				</port>
			</input>
			<output>
				<port id="2" precision="I64" names="/distilbert/transformer/layer.1/attention/Unsqueeze_5_output_0">
					<dim>1</dim>
				</port>
			</output>
		</layer>
		<layer id="247" name="/distilbert/transformer/layer.1/attention/Constant_15" type="Const" version="opset1">
			<data element_type="i64" shape="1" offset="90763288" size="8" />
			<rt_info>
				<attribute name="fused_names" version="0" value="/distilbert/transformer/layer.1/attention/Constant_15" />
			</rt_info>
			<output>
				<port id="0" precision="I64" names="/distilbert/transformer/layer.1/attention/Constant_15_output_0">
					<dim>1</dim>
				</port>
			</output>
		</layer>
		<layer id="248" name="/distilbert/transformer/layer.1/attention/Constant_16" type="Const" version="opset1">
			<data element_type="i64" shape="1" offset="97856640" size="8" />
			<rt_info>
				<attribute name="fused_names" version="0" value="/distilbert/transformer/layer.1/attention/Constant_16" />
			</rt_info>
			<output>
				<port id="0" precision="I64" names="/distilbert/transformer/layer.1/attention/Constant_16_output_0">
					<dim>1</dim>
				</port>
			</output>
		</layer>
		<layer id="249" name="/distilbert/transformer/layer.1/attention/Concat_4" type="Concat" version="opset1">
			<data axis="0" />
			<rt_info>
				<attribute name="fused_names" version="0" value="/distilbert/transformer/layer.1/attention/Concat_4, /distilbert/transformer/layer.1/attention/Constant_15, /distilbert/transformer/layer.1/attention/Constant_16" />
			</rt_info>
			<input>
				<port id="0" precision="I64">
					<dim>1</dim>
				</port>
				<port id="1" precision="I64">
					<dim>1</dim>
				</port>
				<port id="2" precision="I64">
					<dim>1</dim>
				</port>
			</input>
			<output>
				<port id="3" precision="I64" names="/distilbert/transformer/layer.1/attention/Concat_4_output_0">
					<dim>3</dim>
				</port>
			</output>
		</layer>
		<layer id="250" name="/distilbert/transformer/layer.1/attention/Reshape_4" type="Reshape" version="opset1">
			<data special_zero="true" />
			<rt_info>
				<attribute name="fused_names" version="0" value="/distilbert/transformer/layer.1/attention/Reshape_4" />
			</rt_info>
			<input>
				<port id="0" precision="FP32">
					<dim>-1</dim>
					<dim>-1</dim>
					<dim>12</dim>
					<dim>64</dim>
				</port>
				<port id="1" precision="I64">
					<dim>3</dim>
				</port>
			</input>
			<output>
				<port id="2" precision="FP32" names="/distilbert/transformer/layer.1/attention/Reshape_4_output_0">
					<dim>-1</dim>
					<dim>-1</dim>
					<dim>768</dim>
				</port>
			</output>
		</layer>
		<layer id="251" name="onnx::MatMul_773" type="Const" version="opset1">
			<data element_type="f32" shape="768, 768" offset="126189716" size="2359296" />
			<rt_info>
				<attribute name="fused_names" version="0" value="onnx::MatMul_773" />
			</rt_info>
			<output>
				<port id="0" precision="FP32" names="onnx::MatMul_773">
					<dim>768</dim>
					<dim>768</dim>
				</port>
			</output>
		</layer>
		<layer id="252" name="/distilbert/transformer/layer.1/attention/out_lin/MatMul" type="MatMul" version="opset1">
			<data transpose_a="false" transpose_b="false" />
			<rt_info>
				<attribute name="fused_names" version="0" value="/distilbert/transformer/layer.1/attention/out_lin/MatMul" />
			</rt_info>
			<input>
				<port id="0" precision="FP32">
					<dim>-1</dim>
					<dim>-1</dim>
					<dim>768</dim>
				</port>
				<port id="1" precision="FP32">
					<dim>768</dim>
					<dim>768</dim>
				</port>
			</input>
			<output>
				<port id="2" precision="FP32" names="/distilbert/transformer/layer.1/attention/out_lin/MatMul_output_0">
					<dim>-1</dim>
					<dim>-1</dim>
					<dim>768</dim>
				</port>
			</output>
		</layer>
		<layer id="253" name="/distilbert/transformer/layer.1/attention/out_lin/Add" type="Add" version="opset1">
			<data auto_broadcast="numpy" />
			<rt_info>
				<attribute name="fused_names" version="0" value="/distilbert/transformer/layer.1/attention/out_lin/Add" />
			</rt_info>
			<input>
				<port id="0" precision="FP32">
					<dim>768</dim>
				</port>
				<port id="1" precision="FP32">
					<dim>-1</dim>
					<dim>-1</dim>
					<dim>768</dim>
				</port>
			</input>
			<output>
				<port id="2" precision="FP32" names="/distilbert/transformer/layer.1/attention/out_lin/Add_output_0">
					<dim>-1</dim>
					<dim>-1</dim>
					<dim>768</dim>
				</port>
			</output>
		</layer>
		<layer id="254" name="/distilbert/transformer/layer.1/Add" type="Add" version="opset1">
			<data auto_broadcast="numpy" />
			<rt_info>
				<attribute name="fused_names" version="0" value="/distilbert/transformer/layer.1/Add" />
			</rt_info>
			<input>
				<port id="0" precision="FP32">
					<dim>-1</dim>
					<dim>-1</dim>
					<dim>768</dim>
				</port>
				<port id="1" precision="FP32">
					<dim>-1</dim>
					<dim>-1</dim>
					<dim>768</dim>
				</port>
			</input>
			<output>
				<port id="2" precision="FP32" names="/distilbert/transformer/layer.1/Add_output_0">
					<dim>-1</dim>
					<dim>-1</dim>
					<dim>768</dim>
				</port>
			</output>
		</layer>
		<layer id="255" name="Constant_255480" type="Const" version="opset1">
			<data element_type="i64" shape="1" offset="90763288" size="8" />
			<rt_info>
				<attribute name="fused_names" version="0" value="Constant_255480" />
			</rt_info>
			<output>
				<port id="0" precision="I64">
					<dim>1</dim>
				</port>
			</output>
		</layer>
		<layer id="256" name="/distilbert/transformer/layer.1/sa_layer_norm/ReduceMean" type="ReduceMean" version="opset1">
			<data keep_dims="true" />
			<rt_info>
				<attribute name="fused_names" version="0" value="/distilbert/transformer/layer.1/sa_layer_norm/ReduceMean" />
			</rt_info>
			<input>
				<port id="0" precision="FP32">
					<dim>-1</dim>
					<dim>-1</dim>
					<dim>768</dim>
				</port>
				<port id="1" precision="I64">
					<dim>1</dim>
				</port>
			</input>
			<output>
				<port id="2" precision="FP32" names="/distilbert/transformer/layer.1/sa_layer_norm/ReduceMean_output_0">
					<dim>-1</dim>
					<dim>-1</dim>
					<dim>1</dim>
				</port>
			</output>
		</layer>
		<layer id="257" name="/distilbert/transformer/layer.1/sa_layer_norm/Sub" type="Subtract" version="opset1">
			<data auto_broadcast="numpy" />
			<rt_info>
				<attribute name="fused_names" version="0" value="/distilbert/transformer/layer.1/sa_layer_norm/Sub" />
			</rt_info>
			<input>
				<port id="0" precision="FP32">
					<dim>-1</dim>
					<dim>-1</dim>
					<dim>768</dim>
				</port>
				<port id="1" precision="FP32">
					<dim>-1</dim>
					<dim>-1</dim>
					<dim>1</dim>
				</port>
			</input>
			<output>
				<port id="2" precision="FP32" names="/distilbert/transformer/layer.1/sa_layer_norm/Sub_output_0">
					<dim>-1</dim>
					<dim>-1</dim>
					<dim>768</dim>
				</port>
			</output>
		</layer>
		<layer id="258" name="/distilbert/transformer/layer.1/sa_layer_norm/Constant" type="Const" version="opset1">
			<data element_type="f32" shape="" offset="90763296" size="4" />
			<rt_info>
				<attribute name="fused_names" version="0" value="/distilbert/transformer/layer.1/sa_layer_norm/Constant" />
			</rt_info>
			<output>
				<port id="0" precision="FP32" names="/distilbert/transformer/layer.1/sa_layer_norm/Constant_output_0" />
			</output>
		</layer>
		<layer id="259" name="/distilbert/transformer/layer.1/sa_layer_norm/Pow" type="Power" version="opset1">
			<data auto_broadcast="numpy" />
			<rt_info>
				<attribute name="fused_names" version="0" value="/distilbert/transformer/layer.1/sa_layer_norm/Pow" />
			</rt_info>
			<input>
				<port id="0" precision="FP32">
					<dim>-1</dim>
					<dim>-1</dim>
					<dim>768</dim>
				</port>
				<port id="1" precision="FP32" />
			</input>
			<output>
				<port id="2" precision="FP32" names="/distilbert/transformer/layer.1/sa_layer_norm/Pow_output_0">
					<dim>-1</dim>
					<dim>-1</dim>
					<dim>768</dim>
				</port>
			</output>
		</layer>
		<layer id="260" name="Constant_255485" type="Const" version="opset1">
			<data element_type="i64" shape="1" offset="90763288" size="8" />
			<rt_info>
				<attribute name="fused_names" version="0" value="Constant_255485" />
			</rt_info>
			<output>
				<port id="0" precision="I64">
					<dim>1</dim>
				</port>
			</output>
		</layer>
		<layer id="261" name="/distilbert/transformer/layer.1/sa_layer_norm/ReduceMean_1" type="ReduceMean" version="opset1">
			<data keep_dims="true" />
			<rt_info>
				<attribute name="fused_names" version="0" value="/distilbert/transformer/layer.1/sa_layer_norm/ReduceMean_1" />
			</rt_info>
			<input>
				<port id="0" precision="FP32">
					<dim>-1</dim>
					<dim>-1</dim>
					<dim>768</dim>
				</port>
				<port id="1" precision="I64">
					<dim>1</dim>
				</port>
			</input>
			<output>
				<port id="2" precision="FP32" names="/distilbert/transformer/layer.1/sa_layer_norm/ReduceMean_1_output_0">
					<dim>-1</dim>
					<dim>-1</dim>
					<dim>1</dim>
				</port>
			</output>
		</layer>
		<layer id="262" name="/distilbert/transformer/layer.1/sa_layer_norm/Constant_1" type="Const" version="opset1">
			<data element_type="f32" shape="" offset="90763300" size="4" />
			<rt_info>
				<attribute name="fused_names" version="0" value="/distilbert/transformer/layer.1/sa_layer_norm/Constant_1" />
			</rt_info>
			<output>
				<port id="0" precision="FP32" names="/distilbert/transformer/layer.1/sa_layer_norm/Constant_1_output_0" />
			</output>
		</layer>
		<layer id="263" name="/distilbert/transformer/layer.1/sa_layer_norm/Add" type="Add" version="opset1">
			<data auto_broadcast="numpy" />
			<rt_info>
				<attribute name="fused_names" version="0" value="/distilbert/transformer/layer.1/sa_layer_norm/Add" />
			</rt_info>
			<input>
				<port id="0" precision="FP32">
					<dim>-1</dim>
					<dim>-1</dim>
					<dim>1</dim>
				</port>
				<port id="1" precision="FP32" />
			</input>
			<output>
				<port id="2" precision="FP32" names="/distilbert/transformer/layer.1/sa_layer_norm/Add_output_0">
					<dim>-1</dim>
					<dim>-1</dim>
					<dim>1</dim>
				</port>
			</output>
		</layer>
		<layer id="264" name="/distilbert/transformer/layer.1/sa_layer_norm/Sqrt" type="Sqrt" version="opset1">
			<rt_info>
				<attribute name="fused_names" version="0" value="/distilbert/transformer/layer.1/sa_layer_norm/Sqrt" />
			</rt_info>
			<input>
				<port id="0" precision="FP32">
					<dim>-1</dim>
					<dim>-1</dim>
					<dim>1</dim>
				</port>
			</input>
			<output>
				<port id="1" precision="FP32" names="/distilbert/transformer/layer.1/sa_layer_norm/Sqrt_output_0">
					<dim>-1</dim>
					<dim>-1</dim>
					<dim>1</dim>
				</port>
			</output>
		</layer>
		<layer id="265" name="/distilbert/transformer/layer.1/sa_layer_norm/Div" type="Divide" version="opset1">
			<data auto_broadcast="numpy" m_pythondiv="true" />
			<rt_info>
				<attribute name="fused_names" version="0" value="/distilbert/transformer/layer.1/sa_layer_norm/Div" />
			</rt_info>
			<input>
				<port id="0" precision="FP32">
					<dim>-1</dim>
					<dim>-1</dim>
					<dim>768</dim>
				</port>
				<port id="1" precision="FP32">
					<dim>-1</dim>
					<dim>-1</dim>
					<dim>1</dim>
				</port>
			</input>
			<output>
				<port id="2" precision="FP32" names="/distilbert/transformer/layer.1/sa_layer_norm/Div_output_0">
					<dim>-1</dim>
					<dim>-1</dim>
					<dim>768</dim>
				</port>
			</output>
		</layer>
		<layer id="266" name="distilbert.transformer.layer.1.sa_layer_norm.weight" type="Const" version="opset1">
			<data element_type="f32" shape="768" offset="128549012" size="3072" />
			<rt_info>
				<attribute name="fused_names" version="0" value="distilbert.transformer.layer.1.sa_layer_norm.weight" />
			</rt_info>
			<output>
				<port id="0" precision="FP32" names="distilbert.transformer.layer.1.sa_layer_norm.weight">
					<dim>768</dim>
				</port>
			</output>
		</layer>
		<layer id="267" name="/distilbert/transformer/layer.1/sa_layer_norm/Mul" type="Multiply" version="opset1">
			<data auto_broadcast="numpy" />
			<rt_info>
				<attribute name="fused_names" version="0" value="/distilbert/transformer/layer.1/sa_layer_norm/Mul" />
			</rt_info>
			<input>
				<port id="0" precision="FP32">
					<dim>-1</dim>
					<dim>-1</dim>
					<dim>768</dim>
				</port>
				<port id="1" precision="FP32">
					<dim>768</dim>
				</port>
			</input>
			<output>
				<port id="2" precision="FP32" names="/distilbert/transformer/layer.1/sa_layer_norm/Mul_output_0">
					<dim>-1</dim>
					<dim>-1</dim>
					<dim>768</dim>
				</port>
			</output>
		</layer>
		<layer id="268" name="distilbert.transformer.layer.1.sa_layer_norm.bias" type="Const" version="opset1">
			<data element_type="f32" shape="768" offset="128552084" size="3072" />
			<rt_info>
				<attribute name="fused_names" version="0" value="distilbert.transformer.layer.1.sa_layer_norm.bias" />
			</rt_info>
			<output>
				<port id="0" precision="FP32" names="distilbert.transformer.layer.1.sa_layer_norm.bias">
					<dim>768</dim>
				</port>
			</output>
		</layer>
		<layer id="269" name="/distilbert/transformer/layer.1/sa_layer_norm/Add_1" type="Add" version="opset1">
			<data auto_broadcast="numpy" />
			<rt_info>
				<attribute name="fused_names" version="0" value="/distilbert/transformer/layer.1/sa_layer_norm/Add_1" />
			</rt_info>
			<input>
				<port id="0" precision="FP32">
					<dim>-1</dim>
					<dim>-1</dim>
					<dim>768</dim>
				</port>
				<port id="1" precision="FP32">
					<dim>768</dim>
				</port>
			</input>
			<output>
				<port id="2" precision="FP32" names="/distilbert/transformer/layer.1/sa_layer_norm/Add_1_output_0">
					<dim>-1</dim>
					<dim>-1</dim>
					<dim>768</dim>
				</port>
			</output>
		</layer>
		<layer id="270" name="onnx::MatMul_774" type="Const" version="opset1">
			<data element_type="f32" shape="768, 3072" offset="128555156" size="9437184" />
			<rt_info>
				<attribute name="fused_names" version="0" value="onnx::MatMul_774" />
			</rt_info>
			<output>
				<port id="0" precision="FP32" names="onnx::MatMul_774">
					<dim>768</dim>
					<dim>3072</dim>
				</port>
			</output>
		</layer>
		<layer id="271" name="/distilbert/transformer/layer.1/ffn/lin1/MatMul" type="MatMul" version="opset1">
			<data transpose_a="false" transpose_b="false" />
			<rt_info>
				<attribute name="fused_names" version="0" value="/distilbert/transformer/layer.1/ffn/lin1/MatMul" />
			</rt_info>
			<input>
				<port id="0" precision="FP32">
					<dim>-1</dim>
					<dim>-1</dim>
					<dim>768</dim>
				</port>
				<port id="1" precision="FP32">
					<dim>768</dim>
					<dim>3072</dim>
				</port>
			</input>
			<output>
				<port id="2" precision="FP32" names="/distilbert/transformer/layer.1/ffn/lin1/MatMul_output_0">
					<dim>-1</dim>
					<dim>-1</dim>
…
		<edge from-layer="156" from-port="2" to-layer="158" to-port="0" />
		<edge from-layer="157" from-port="0" to-layer="158" to-port="1" />
		<edge from-layer="158" from-port="2" to-layer="160" to-port="0" />
		<edge from-layer="159" from-port="0" to-layer="160" to-port="1" />
		<edge from-layer="160" from-port="2" to-layer="161" to-port="1" />
		<edge from-layer="161" from-port="2" to-layer="162" to-port="0" />
		<edge from-layer="162" from-port="2" to-layer="164" to-port="0" />
		<edge from-layer="162" from-port="2" to-layer="165" to-port="0" />
		<edge from-layer="163" from-port="0" to-layer="164" to-port="1" />
		<edge from-layer="164" from-port="2" to-layer="165" to-port="1" />
		<edge from-layer="165" from-port="2" to-layer="167" to-port="0" />
		<edge from-layer="165" from-port="2" to-layer="173" to-port="0" />
		<edge from-layer="166" from-port="0" to-layer="167" to-port="1" />
		<edge from-layer="167" from-port="2" to-layer="169" to-port="0" />
		<edge from-layer="168" from-port="0" to-layer="169" to-port="1" />
		<edge from-layer="169" from-port="2" to-layer="171" to-port="0" />
		<edge from-layer="170" from-port="0" to-layer="171" to-port="1" />
		<edge from-layer="171" from-port="2" to-layer="172" to-port="0" />
		<edge from-layer="172" from-port="1" to-layer="173" to-port="1" />
		<edge from-layer="173" from-port="2" to-layer="175" to-port="0" />
		<edge from-layer="174" from-port="0" to-layer="175" to-port="1" />
		<edge from-layer="175" from-port="2" to-layer="177" to-port="0" />
		<edge from-layer="176" from-port="0" to-layer="177" to-port="1" />
		<edge from-layer="177" from-port="2" to-layer="231" to-port="0" />
		<edge from-layer="177" from-port="2" to-layer="211" to-port="0" />
		<edge from-layer="177" from-port="2" to-layer="196" to-port="0" />
		<edge from-layer="177" from-port="2" to-layer="186" to-port="0" />
		<edge from-layer="177" from-port="2" to-layer="254" to-port="1" />
		<edge from-layer="177" from-port="2" to-layer="178" to-port="0" />
		<edge from-layer="178" from-port="1" to-layer="181" to-port="0" />
		<edge from-layer="179" from-port="0" to-layer="181" to-port="1" />
		<edge from-layer="180" from-port="0" to-layer="181" to-port="2" />
		<edge from-layer="181" from-port="3" to-layer="246" to-port="0" />
		<edge from-layer="181" from-port="3" to-layer="234" to-port="0" />
		<edge from-layer="181" from-port="3" to-layer="214" to-port="0" />
		<edge from-layer="181" from-port="3" to-layer="183" to-port="0" />
		<edge from-layer="181" from-port="3" to-layer="199" to-port="0" />
		<edge from-layer="182" from-port="0" to-layer="183" to-port="1" />
		<edge from-layer="183" from-port="2" to-layer="192" to-port="0" />
		<edge from-layer="184" from-port="0" to-layer="192" to-port="1" />
		<edge from-layer="185" from-port="0" to-layer="192" to-port="2" />
		<edge from-layer="186" from-port="1" to-layer="189" to-port="0" />
		<edge from-layer="187" from-port="0" to-layer="189" to-port="1" />
		<edge from-layer="188" from-port="0" to-layer="189" to-port="2" />
		<edge from-layer="189" from-port="3" to-layer="191" to-port="0" />
		<edge from-layer="190" from-port="0" to-layer="191" to-port="1" />
		<edge from-layer="191" from-port="2" to-layer="192" to-port="3" />
		<edge from-layer="192" from-port="4" to-layer="193" to-port="1" />
		<edge from-layer="193" from-port="2" to-layer="224" to-port="0" />
		<edge from-layer="194" from-port="0" to-layer="197" to-port="0" />
		<edge from-layer="195" from-port="0" to-layer="196" to-port="1" />
		<edge from-layer="196" from-port="2" to-layer="197" to-port="1" />
		<edge from-layer="197" from-port="2" to-layer="204" to-port="0" />
		<edge from-layer="198" from-port="0" to-layer="199" to-port="1" />
		<edge from-layer="199" from-port="2" to-layer="203" to-port="0" />
		<edge from-layer="200" from-port="0" to-layer="203" to-port="1" />
		<edge from-layer="201" from-port="0" to-layer="203" to-port="2" />
		<edge from-layer="202" from-port="0" to-layer="203" to-port="3" />
		<edge from-layer="203" from-port="4" to-layer="204" to-port="1" />
		<edge from-layer="204" from-port="2" to-layer="206" to-port="0" />
		<edge from-layer="205" from-port="0" to-layer="206" to-port="1" />
		<edge from-layer="206" from-port="2" to-layer="208" to-port="0" />
		<edge from-layer="207" from-port="0" to-layer="208" to-port="1" />
		<edge from-layer="208" from-port="2" to-layer="222" to-port="0" />
		<edge from-layer="209" from-port="0" to-layer="212" to-port="0" />
		<edge from-layer="210" from-port="0" to-layer="211" to-port="1" />
		<edge from-layer="211" from-port="2" to-layer="212" to-port="1" />
		<edge from-layer="212" from-port="2" to-layer="219" to-port="0" />
		<edge from-layer="213" from-port="0" to-layer="214" to-port="1" />
		<edge from-layer="214" from-port="2" to-layer="218" to-port="0" />
		<edge from-layer="215" from-port="0" to-layer="218" to-port="1" />
		<edge from-layer="216" from-port="0" to-layer="218" to-port="2" />
		<edge from-layer="217" from-port="0" to-layer="218" to-port="3" />
		<edge from-layer="218" from-port="4" to-layer="219" to-port="1" />
		<edge from-layer="219" from-port="2" to-layer="221" to-port="0" />
		<edge from-layer="220" from-port="0" to-layer="221" to-port="1" />
		<edge from-layer="221" from-port="2" to-layer="222" to-port="1" />
		<edge from-layer="222" from-port="2" to-layer="223" to-port="0" />
		<edge from-layer="222" from-port="2" to-layer="227" to-port="2" />
		<edge from-layer="223" from-port="1" to-layer="224" to-port="1" />
		<edge from-layer="224" from-port="2" to-layer="225" to-port="0" />
		<edge from-layer="225" from-port="1" to-layer="227" to-port="0" />
		<edge from-layer="226" from-port="0" to-layer="227" to-port="1" />
		<edge from-layer="227" from-port="3" to-layer="228" to-port="0" />
		<edge from-layer="228" from-port="1" to-layer="242" to-port="0" />
		<edge from-layer="229" from-port="0" to-layer="232" to-port="0" />
		<edge from-layer="230" from-port="0" to-layer="231" to-port="1" />
		<edge from-layer="231" from-port="2" to-layer="232" to-port="1" />
		<edge from-layer="232" from-port="2" to-layer="239" to-port="0" />
		<edge from-layer="233" from-port="0" to-layer="234" to-port="1" />
		<edge from-layer="234" from-port="2" to-layer="238" to-port="0" />
		<edge from-layer="235" from-port="0" to-layer="238" to-port="1" />
		<edge from-layer="236" from-port="0" to-layer="238" to-port="2" />
		<edge from-layer="237" from-port="0" to-layer="238" to-port="3" />
		<edge from-layer="238" from-port="4" to-layer="239" to-port="1" />
		<edge from-layer="239" from-port="2" to-layer="241" to-port="0" />
		<edge from-layer="240" from-port="0" to-layer="241" to-port="1" />
		<edge from-layer="241" from-port="2" to-layer="242" to-port="1" />
		<edge from-layer="242" from-port="2" to-layer="244" to-port="0" />
		<edge from-layer="243" from-port="0" to-layer="244" to-port="1" />
		<edge from-layer="244" from-port="2" to-layer="250" to-port="0" />
		<edge from-layer="245" from-port="0" to-layer="246" to-port="1" />
		<edge from-layer="246" from-port="2" to-layer="249" to-port="0" />
		<edge from-layer="247" from-port="0" to-layer="249" to-port="1" />
		<edge from-layer="248" from-port="0" to-layer="249" to-port="2" />
		<edge from-layer="249" from-port="3" to-layer="250" to-port="1" />
		<edge from-layer="250" from-port="2" to-layer="252" to-port="0" />
		<edge from-layer="251" from-port="0" to-layer="252" to-port="1" />
		<edge from-layer="252" from-port="2" to-layer="253" to-port="1" />
		<edge from-layer="253" from-port="2" to-layer="254" to-port="0" />
		<edge from-layer="254" from-port="2" to-layer="256" to-port="0" />
		<edge from-layer="254" from-port="2" to-layer="257" to-port="0" />
		<edge from-layer="255" from-port="0" to-layer="256" to-port="1" />
		<edge from-layer="256" from-port="2" to-layer="257" to-port="1" />
		<edge from-layer="257" from-port="2" to-layer="259" to-port="0" />
		<edge from-layer="257" from-port="2" to-layer="265" to-port="0" />
		<edge from-layer="258" from-port="0" to-layer="259" to-port="1" />
		<edge from-layer="259" from-port="2" to-layer="261" to-port="0" />
		<edge from-layer="260" from-port="0" to-layer="261" to-port="1" />
		<edge from-layer="261" from-port="2" to-layer="263" to-port="0" />
		<edge from-layer="262" from-port="0" to-layer="263" to-port="1" />
		<edge from-layer="263" from-port="2" to-layer="264" to-port="0" />
		<edge from-layer="264" from-port="1" to-layer="265" to-port="1" />
		<edge from-layer="265" from-port="2" to-layer="267" to-port="0" />
		<edge from-layer="266" from-port="0" to-layer="267" to-port="1" />
		<edge from-layer="267" from-port="2" to-layer="269" to-port="0" />
		<edge from-layer="268" from-port="0" to-layer="269" to-port="1" />
		<edge from-layer="269" from-port="2" to-layer="271" to-port="0" />
		<edge from-layer="269" from-port="2" to-layer="284" to-port="1" />
		<edge from-layer="270" from-port="0" to-layer="271" to-port="1" />
		<edge from-layer="271" from-port="2" to-layer="272" to-port="1" />
		<edge from-layer="272" from-port="2" to-layer="274" to-port="0" />
		<edge from-layer="272" from-port="2" to-layer="278" to-port="0" />
		<edge from-layer="273" from-port="0" to-layer="274" to-port="1" />
		<edge from-layer="274" from-port="2" to-layer="275" to-port="0" />
		<edge from-layer="275" from-port="1" to-layer="277" to-port="0" />
		<edge from-layer="276" from-port="0" to-layer="277" to-port="1" />
		<edge from-layer="277" from-port="2" to-layer="278" to-port="1" />
		<edge from-layer="278" from-port="2" to-layer="280" to-port="0" />
		<edge from-layer="279" from-port="0" to-layer="280" to-port="1" />
		<edge from-layer="280" from-port="2" to-layer="282" to-port="0" />
		<edge from-layer="281" from-port="0" to-layer="282" to-port="1" />
		<edge from-layer="282" from-port="2" to-layer="283" to-port="1" />
		<edge from-layer="283" from-port="2" to-layer="284" to-port="0" />
		<edge from-layer="284" from-port="2" to-layer="287" to-port="0" />
		<edge from-layer="284" from-port="2" to-layer="286" to-port="0" />
		<edge from-layer="285" from-port="0" to-layer="286" to-port="1" />
		<edge from-layer="286" from-port="2" to-layer="287" to-port="1" />
		<edge from-layer="287" from-port="2" to-layer="289" to-port="0" />
		<edge from-layer="287" from-port="2" to-layer="295" to-port="0" />
		<edge from-layer="288" from-port="0" to-layer="289" to-port="1" />
		<edge from-layer="289" from-port="2" to-layer="291" to-port="0" />
		<edge from-layer="290" from-port="0" to-layer="291" to-port="1" />
		<edge from-layer="291" from-port="2" to-layer="293" to-port="0" />
		<edge from-layer="292" from-port="0" to-layer="293" to-port="1" />
		<edge from-layer="293" from-port="2" to-layer="294" to-port="0" />
		<edge from-layer="294" from-port="1" to-layer="295" to-port="1" />
		<edge from-layer="295" from-port="2" to-layer="297" to-port="0" />
		<edge from-layer="296" from-port="0" to-layer="297" to-port="1" />
		<edge from-layer="297" from-port="2" to-layer="299" to-port="0" />
		<edge from-layer="298" from-port="0" to-layer="299" to-port="1" />
		<edge from-layer="299" from-port="2" to-layer="333" to-port="0" />
		<edge from-layer="299" from-port="2" to-layer="318" to-port="0" />
		<edge from-layer="299" from-port="2" to-layer="353" to-port="0" />
		<edge from-layer="299" from-port="2" to-layer="300" to-port="0" />
		<edge from-layer="299" from-port="2" to-layer="308" to-port="0" />
		<edge from-layer="299" from-port="2" to-layer="376" to-port="1" />
		<edge from-layer="300" from-port="1" to-layer="303" to-port="0" />
		<edge from-layer="301" from-port="0" to-layer="303" to-port="1" />
		<edge from-layer="302" from-port="0" to-layer="303" to-port="2" />
		<edge from-layer="303" from-port="3" to-layer="356" to-port="0" />
		<edge from-layer="303" from-port="3" to-layer="368" to-port="0" />
		<edge from-layer="303" from-port="3" to-layer="336" to-port="0" />
		<edge from-layer="303" from-port="3" to-layer="321" to-port="0" />
		<edge from-layer="303" from-port="3" to-layer="305" to-port="0" />
		<edge from-layer="304" from-port="0" to-layer="305" to-port="1" />
		<edge from-layer="305" from-port="2" to-layer="314" to-port="0" />
		<edge from-layer="306" from-port="0" to-layer="314" to-port="1" />
		<edge from-layer="307" from-port="0" to-layer="314" to-port="2" />
		<edge from-layer="308" from-port="1" to-layer="311" to-port="0" />
		<edge from-layer="309" from-port="0" to-layer="311" to-port="1" />
		<edge from-layer="310" from-port="0" to-layer="311" to-port="2" />
		<edge from-layer="311" from-port="3" to-layer="313" to-port="0" />
		<edge from-layer="312" from-port="0" to-layer="313" to-port="1" />
		<edge from-layer="313" from-port="2" to-layer="314" to-port="3" />
		<edge from-layer="314" from-port="4" to-layer="315" to-port="1" />
		<edge from-layer="315" from-port="2" to-layer="346" to-port="0" />
		<edge from-layer="316" from-port="0" to-layer="319" to-port="0" />
		<edge from-layer="317" from-port="0" to-layer="318" to-port="1" />
		<edge from-layer="318" from-port="2" to-layer="319" to-port="1" />
		<edge from-layer="319" from-port="2" to-layer="326" to-port="0" />
		<edge from-layer="320" from-port="0" to-layer="321" to-port="1" />
		<edge from-layer="321" from-port="2" to-layer="325" to-port="0" />
		<edge from-layer="322" from-port="0" to-layer="325" to-port="1" />
		<edge from-layer="323" from-port="0" to-layer="325" to-port="2" />
		<edge from-layer="324" from-port="0" to-layer="325" to-port="3" />
		<edge from-layer="325" from-port="4" to-layer="326" to-port="1" />
		<edge from-layer="326" from-port="2" to-layer="328" to-port="0" />
		<edge from-layer="327" from-port="0" to-layer="328" to-port="1" />
		<edge from-layer="328" from-port="2" to-layer="330" to-port="0" />
		<edge from-layer="329" from-port="0" to-layer="330" to-port="1" />
		<edge from-layer="330" from-port="2" to-layer="344" to-port="0" />
		<edge from-layer="331" from-port="0" to-layer="334" to-port="0" />
		<edge from-layer="332" from-port="0" to-layer="333" to-port="1" />
		<edge from-layer="333" from-port="2" to-layer="334" to-port="1" />
		<edge from-layer="334" from-port="2" to-layer="341" to-port="0" />
		<edge from-layer="335" from-port="0" to-layer="336" to-port="1" />
		<edge from-layer="336" from-port="2" to-layer="340" to-port="0" />
		<edge from-layer="337" from-port="0" to-layer="340" to-port="1" />
		<edge from-layer="338" from-port="0" to-layer="340" to-port="2" />
		<edge from-layer="339" from-port="0" to-layer="340" to-port="3" />
		<edge from-layer="340" from-port="4" to-layer="341" to-port="1" />
		<edge from-layer="341" from-port="2" to-layer="343" to-port="0" />
		<edge from-layer="342" from-port="0" to-layer="343" to-port="1" />
		<edge from-layer="343" from-port="2" to-layer="344" to-port="1" />
		<edge from-layer="344" from-port="2" to-layer="349" to-port="2" />
		<edge from-layer="344" from-port="2" to-layer="345" to-port="0" />
		<edge from-layer="345" from-port="1" to-layer="346" to-port="1" />
		<edge from-layer="346" from-port="2" to-layer="347" to-port="0" />
		<edge from-layer="347" from-port="1" to-layer="349" to-port="0" />
		<edge from-layer="348" from-port="0" to-layer="349" to-port="1" />
		<edge from-layer="349" from-port="3" to-layer="350" to-port="0" />
		<edge from-layer="350" from-port="1" to-layer="364" to-port="0" />
		<edge from-layer="351" from-port="0" to-layer="354" to-port="0" />
		<edge from-layer="352" from-port="0" to-layer="353" to-port="1" />
		<edge from-layer="353" from-port="2" to-layer="354" to-port="1" />
		<edge from-layer="354" from-port="2" to-layer="361" to-port="0" />
		<edge from-layer="355" from-port="0" to-layer="356" to-port="1" />
		<edge from-layer="356" from-port="2" to-layer="360" to-port="0" />
		<edge from-layer="357" from-port="0" to-layer="360" to-port="1" />
		<edge from-layer="358" from-port="0" to-layer="360" to-port="2" />
		<edge from-layer="359" from-port="0" to-layer="360" to-port="3" />
		<edge from-layer="360" from-port="4" to-layer="361" to-port="1" />
		<edge from-layer="361" from-port="2" to-layer="363" to-port="0" />
		<edge from-layer="362" from-port="0" to-layer="363" to-port="1" />
		<edge from-layer="363" from-port="2" to-layer="364" to-port="1" />
		<edge from-layer="364" from-port="2" to-layer="366" to-port="0" />
		<edge from-layer="365" from-port="0" to-layer="366" to-port="1" />
		<edge from-layer="366" from-port="2" to-layer="372" to-port="0" />
		<edge from-layer="367" from-port="0" to-layer="368" to-port="1" />
		<edge from-layer="368" from-port="2" to-layer="371" to-port="0" />
		<edge from-layer="369" from-port="0" to-layer="371" to-port="1" />
		<edge from-layer="370" from-port="0" to-layer="371" to-port="2" />
		<edge from-layer="371" from-port="3" to-layer="372" to-port="1" />
		<edge from-layer="372" from-port="2" to-layer="374" to-port="0" />
		<edge from-layer="373" from-port="0" to-layer="374" to-port="1" />
		<edge from-layer="374" from-port="2" to-layer="375" to-port="1" />
		<edge from-layer="375" from-port="2" to-layer="376" to-port="0" />
		<edge from-layer="376" from-port="2" to-layer="379" to-port="0" />
		<edge from-layer="376" from-port="2" to-layer="378" to-port="0" />
		<edge from-layer="377" from-port="0" to-layer="378" to-port="1" />
		<edge from-layer="378" from-port="2" to-layer="379" to-port="1" />
		<edge from-layer="379" from-port="2" to-layer="387" to-port="0" />
		<edge from-layer="379" from-port="2" to-layer="381" to-port="0" />
		<edge from-layer="380" from-port="0" to-layer="381" to-port="1" />
		<edge from-layer="381" from-port="2" to-layer="383" to-port="0" />
		<edge from-layer="382" from-port="0" to-layer="383" to-port="1" />
		<edge from-layer="383" from-port="2" to-layer="385" to-port="0" />
		<edge from-layer="384" from-port="0" to-layer="385" to-port="1" />
		<edge from-layer="385" from-port="2" to-layer="386" to-port="0" />
		<edge from-layer="386" from-port="1" to-layer="387" to-port="1" />
		<edge from-layer="387" from-port="2" to-layer="389" to-port="0" />
		<edge from-layer="388" from-port="0" to-layer="389" to-port="1" />
		<edge from-layer="389" from-port="2" to-layer="391" to-port="0" />
		<edge from-layer="390" from-port="0" to-layer="391" to-port="1" />
		<edge from-layer="391" from-port="2" to-layer="393" to-port="0" />
		<edge from-layer="391" from-port="2" to-layer="406" to-port="1" />
		<edge from-layer="392" from-port="0" to-layer="393" to-port="1" />
		<edge from-layer="393" from-port="2" to-layer="394" to-port="1" />
		<edge from-layer="394" from-port="2" to-layer="396" to-port="0" />
		<edge from-layer="394" from-port="2" to-layer="400" to-port="0" />
		<edge from-layer="395" from-port="0" to-layer="396" to-port="1" />
		<edge from-layer="396" from-port="2" to-layer="397" to-port="0" />
		<edge from-layer="397" from-port="1" to-layer="399" to-port="0" />
		<edge from-layer="398" from-port="0" to-layer="399" to-port="1" />
		<edge from-layer="399" from-port="2" to-layer="400" to-port="1" />
		<edge from-layer="400" from-port="2" to-layer="402" to-port="0" />
		<edge from-layer="401" from-port="0" to-layer="402" to-port="1" />
		<edge from-layer="402" from-port="2" to-layer="404" to-port="0" />
		<edge from-layer="403" from-port="0" to-layer="404" to-port="1" />
		<edge from-layer="404" from-port="2" to-layer="405" to-port="1" />
		<edge from-layer="405" from-port="2" to-layer="406" to-port="0" />
		<edge from-layer="406" from-port="2" to-layer="409" to-port="0" />
		<edge from-layer="406" from-port="2" to-layer="408" to-port="0" />
		<edge from-layer="407" from-port="0" to-layer="408" to-port="1" />
		<edge from-layer="408" from-port="2" to-layer="409" to-port="1" />
		<edge from-layer="409" from-port="2" to-layer="411" to-port="0" />
		<edge from-layer="409" from-port="2" to-layer="417" to-port="0" />
		<edge from-layer="410" from-port="0" to-layer="411" to-port="1" />
		<edge from-layer="411" from-port="2" to-layer="413" to-port="0" />
		<edge from-layer="412" from-port="0" to-layer="413" to-port="1" />
		<edge from-layer="413" from-port="2" to-layer="415" to-port="0" />
		<edge from-layer="414" from-port="0" to-layer="415" to-port="1" />
		<edge from-layer="415" from-port="2" to-layer="416" to-port="0" />
		<edge from-layer="416" from-port="1" to-layer="417" to-port="1" />
		<edge from-layer="417" from-port="2" to-layer="419" to-port="0" />
		<edge from-layer="418" from-port="0" to-layer="419" to-port="1" />
		<edge from-layer="419" from-port="2" to-layer="421" to-port="0" />
		<edge from-layer="420" from-port="0" to-layer="421" to-port="1" />
		<edge from-layer="421" from-port="2" to-layer="430" to-port="0" />
		<edge from-layer="421" from-port="2" to-layer="498" to-port="1" />
		<edge from-layer="421" from-port="2" to-layer="422" to-port="0" />
		<edge from-layer="421" from-port="2" to-layer="440" to-port="0" />
		<edge from-layer="421" from-port="2" to-layer="475" to-port="0" />
		<edge from-layer="421" from-port="2" to-layer="455" to-port="0" />
		<edge from-layer="422" from-port="1" to-layer="425" to-port="0" />
		<edge from-layer="423" from-port="0" to-layer="425" to-port="1" />
		<edge from-layer="424" from-port="0" to-layer="425" to-port="2" />
		<edge from-layer="425" from-port="3" to-layer="443" to-port="0" />
		<edge from-layer="425" from-port="3" to-layer="427" to-port="0" />
		<edge from-layer="425" from-port="3" to-layer="490" to-port="0" />
		<edge from-layer="425" from-port="3" to-layer="478" to-port="0" />
		<edge from-layer="425" from-port="3" to-layer="458" to-port="0" />
		<edge from-layer="426" from-port="0" to-layer="427" to-port="1" />
		<edge from-layer="427" from-port="2" to-layer="436" to-port="0" />
		<edge from-layer="428" from-port="0" to-layer="436" to-port="1" />
		<edge from-layer="429" from-port="0" to-layer="436" to-port="2" />
		<edge from-layer="430" from-port="1" to-layer="433" to-port="0" />
		<edge from-layer="431" from-port="0" to-layer="433" to-port="1" />
		<edge from-layer="432" from-port="0" to-layer="433" to-port="2" />
		<edge from-layer="433" from-port="3" to-layer="435" to-port="0" />
		<edge from-layer="434" from-port="0" to-layer="435" to-port="1" />
		<edge from-layer="435" from-port="2" to-layer="436" to-port="3" />
		<edge from-layer="436" from-port="4" to-layer="437" to-port="1" />
		<edge from-layer="437" from-port="2" to-layer="468" to-port="0" />
		<edge from-layer="438" from-port="0" to-layer="441" to-port="0" />
		<edge from-layer="439" from-port="0" to-layer="440" to-port="1" />
		<edge from-layer="440" from-port="2" to-layer="441" to-port="1" />
		<edge from-layer="441" from-port="2" to-layer="448" to-port="0" />
		<edge from-layer="442" from-port="0" to-layer="443" to-port="1" />
		<edge from-layer="443" from-port="2" to-layer="447" to-port="0" />
		<edge from-layer="444" from-port="0" to-layer="447" to-port="1" />
		<edge from-layer="445" from-port="0" to-layer="447" to-port="2" />
		<edge from-layer="446" from-port="0" to-layer="447" to-port="3" />
		<edge from-layer="447" from-port="4" to-layer="448" to-port="1" />
		<edge from-layer="448" from-port="2" to-layer="450" to-port="0" />
		<edge from-layer="449" from-port="0" to-layer="450" to-port="1" />
		<edge from-layer="450" from-port="2" to-layer="452" to-port="0" />
		<edge from-layer="451" from-port="0" to-layer="452" to-port="1" />
		<edge from-layer="452" from-port="2" to-layer="466" to-port="0" />
		<edge from-layer="453" from-port="0" to-layer="456" to-port="0" />
		<edge from-layer="454" from-port="0" to-layer="455" to-port="1" />
		<edge from-layer="455" from-port="2" to-layer="456" to-port="1" />
		<edge from-layer="456" from-port="2" to-layer="463" to-port="0" />
		<edge from-layer="457" from-port="0" to-layer="458" to-port="1" />
		<edge from-layer="458" from-port="2" to-layer="462" to-port="0" />
		<edge from-layer="459" from-port="0" to-layer="462" to-port="1" />
		<edge from-layer="460" from-port="0" to-layer="462" to-port="2" />
		<edge from-layer="461" from-port="0" to-layer="462" to-port="3" />
		<edge from-layer="462" from-port="4" to-layer="463" to-port="1" />
		<edge from-layer="463" from-port="2" to-layer="465" to-port="0" />
		<edge from-layer="464" from-port="0" to-layer="465" to-port="1" />
		<edge from-layer="465" from-port="2" to-layer="466" to-port="1" />
		<edge from-layer="466" from-port="2" to-layer="471" to-port="2" />
		<edge from-layer="466" from-port="2" to-layer="467" to-port="0" />
		<edge from-layer="467" from-port="1" to-layer="468" to-port="1" />
		<edge from-layer="468" from-port="2" to-layer="469" to-port="0" />
		<edge from-layer="469" from-port="1" to-layer="471" to-port="0" />
		<edge from-layer="470" from-port="0" to-layer="471" to-port="1" />
		<edge from-layer="471" from-port="3" to-layer="472" to-port="0" />
		<edge from-layer="472" from-port="1" to-layer="486" to-port="0" />
		<edge from-layer="473" from-port="0" to-layer="476" to-port="0" />
		<edge from-layer="474" from-port="0" to-layer="475" to-port="1" />
		<edge from-layer="475" from-port="2" to-layer="476" to-port="1" />
		<edge from-layer="476" from-port="2" to-layer="483" to-port="0" />
		<edge from-layer="477" from-port="0" to-layer="478" to-port="1" />
		<edge from-layer="478" from-port="2" to-layer="482" to-port="0" />
		<edge from-layer="479" from-port="0" to-layer="482" to-port="1" />
		<edge from-layer="480" from-port="0" to-layer="482" to-port="2" />
		<edge from-layer="481" from-port="0" to-layer="482" to-port="3" />
		<edge from-layer="482" from-port="4" to-layer="483" to-port="1" />
		<edge from-layer="483" from-port="2" to-layer="485" to-port="0" />
		<edge from-layer="484" from-port="0" to-layer="485" to-port="1" />
		<edge from-layer="485" from-port="2" to-layer="486" to-port="1" />
		<edge from-layer="486" from-port="2" to-layer="488" to-port="0" />
		<edge from-layer="487" from-port="0" to-layer="488" to-port="1" />
		<edge from-layer="488" from-port="2" to-layer="494" to-port="0" />
		<edge from-layer="489" from-port="0" to-layer="490" to-port="1" />
		<edge from-layer="490" from-port="2" to-layer="493" to-port="0" />
		<edge from-layer="491" from-port="0" to-layer="493" to-port="1" />
		<edge from-layer="492" from-port="0" to-layer="493" to-port="2" />
		<edge from-layer="493" from-port="3" to-layer="494" to-port="1" />
		<edge from-layer="494" from-port="2" to-layer="496" to-port="0" />
		<edge from-layer="495" from-port="0" to-layer="496" to-port="1" />
		<edge from-layer="496" from-port="2" to-layer="497" to-port="1" />
		<edge from-layer="497" from-port="2" to-layer="498" to-port="0" />
		<edge from-layer="498" from-port="2" to-layer="500" to-port="0" />
		<edge from-layer="498" from-port="2" to-layer="501" to-port="0" />
		<edge from-layer="499" from-port="0" to-layer="500" to-port="1" />
		<edge from-layer="500" from-port="2" to-layer="501" to-port="1" />
		<edge from-layer="501" from-port="2" to-layer="509" to-port="0" />
		<edge from-layer="501" from-port="2" to-layer="503" to-port="0" />
		<edge from-layer="502" from-port="0" to-layer="503" to-port="1" />
		<edge from-layer="503" from-port="2" to-layer="505" to-port="0" />
		<edge from-layer="504" from-port="0" to-layer="505" to-port="1" />
		<edge from-layer="505" from-port="2" to-layer="507" to-port="0" />
		<edge from-layer="506" from-port="0" to-layer="507" to-port="1" />
		<edge from-layer="507" from-port="2" to-layer="508" to-port="0" />
		<edge from-layer="508" from-port="1" to-layer="509" to-port="1" />
		<edge from-layer="509" from-port="2" to-layer="511" to-port="0" />
		<edge from-layer="510" from-port="0" to-layer="511" to-port="1" />
		<edge from-layer="511" from-port="2" to-layer="513" to-port="0" />
		<edge from-layer="512" from-port="0" to-layer="513" to-port="1" />
		<edge from-layer="513" from-port="2" to-layer="528" to-port="1" />
		<edge from-layer="513" from-port="2" to-layer="515" to-port="0" />
		<edge from-layer="514" from-port="0" to-layer="515" to-port="1" />
		<edge from-layer="515" from-port="2" to-layer="516" to-port="1" />
		<edge from-layer="516" from-port="2" to-layer="522" to-port="0" />
		<edge from-layer="516" from-port="2" to-layer="518" to-port="0" />
		<edge from-layer="517" from-port="0" to-layer="518" to-port="1" />
		<edge from-layer="518" from-port="2" to-layer="519" to-port="0" />
		<edge from-layer="519" from-port="1" to-layer="521" to-port="0" />
		<edge from-layer="520" from-port="0" to-layer="521" to-port="1" />
		<edge from-layer="521" from-port="2" to-layer="522" to-port="1" />
		<edge from-layer="522" from-port="2" to-layer="524" to-port="0" />
		<edge from-layer="523" from-port="0" to-layer="524" to-port="1" />
		<edge from-layer="524" from-port="2" to-layer="526" to-port="0" />
		<edge from-layer="525" from-port="0" to-layer="526" to-port="1" />
		<edge from-layer="526" from-port="2" to-layer="527" to-port="1" />
		<edge from-layer="527" from-port="2" to-layer="528" to-port="0" />
		<edge from-layer="528" from-port="2" to-layer="531" to-port="0" />
		<edge from-layer="528" from-port="2" to-layer="530" to-port="0" />
		<edge from-layer="529" from-port="0" to-layer="530" to-port="1" />
		<edge from-layer="530" from-port="2" to-layer="531" to-port="1" />
		<edge from-layer="531" from-port="2" to-layer="533" to-port="0" />
		<edge from-layer="531" from-port="2" to-layer="539" to-port="0" />
		<edge from-layer="532" from-port="0" to-layer="533" to-port="1" />
		<edge from-layer="533" from-port="2" to-layer="535" to-port="0" />
		<edge from-layer="534" from-port="0" to-layer="535" to-port="1" />
		<edge from-layer="535" from-port="2" to-layer="537" to-port="0" />
		<edge from-layer="536" from-port="0" to-layer="537" to-port="1" />
		<edge from-layer="537" from-port="2" to-layer="538" to-port="0" />
		<edge from-layer="538" from-port="1" to-layer="539" to-port="1" />
		<edge from-layer="539" from-port="2" to-layer="541" to-port="0" />
		<edge from-layer="540" from-port="0" to-layer="541" to-port="1" />
		<edge from-layer="541" from-port="2" to-layer="543" to-port="0" />
		<edge from-layer="542" from-port="0" to-layer="543" to-port="1" />
		<edge from-layer="543" from-port="2" to-layer="597" to-port="0" />
		<edge from-layer="543" from-port="2" to-layer="577" to-port="0" />
		<edge from-layer="543" from-port="2" to-layer="562" to-port="0" />
		<edge from-layer="543" from-port="2" to-layer="620" to-port="1" />
		<edge from-layer="543" from-port="2" to-layer="544" to-port="0" />
		<edge from-layer="543" from-port="2" to-layer="552" to-port="0" />
		<edge from-layer="544" from-port="1" to-layer="547" to-port="0" />
		<edge from-layer="545" from-port="0" to-layer="547" to-port="1" />
		<edge from-layer="546" from-port="0" to-layer="547" to-port="2" />
		<edge from-layer="547" from-port="3" to-layer="549" to-port="0" />
		<edge from-layer="547" from-port="3" to-layer="565" to-port="0" />
		<edge from-layer="547" from-port="3" to-layer="612" to-port="0" />
		<edge from-layer="547" from-port="3" to-layer="600" to-port="0" />
		<edge from-layer="547" from-port="3" to-layer="580" to-port="0" />
		<edge from-layer="548" from-port="0" to-layer="549" to-port="1" />
		<edge from-layer="549" from-port="2" to-layer="558" to-port="0" />
		<edge from-layer="550" from-port="0" to-layer="558" to-port="1" />
		<edge from-layer="551" from-port="0" to-layer="558" to-port="2" />
		<edge from-layer="552" from-port="1" to-layer="555" to-port="0" />
		<edge from-layer="553" from-port="0" to-layer="555" to-port="1" />
		<edge from-layer="554" from-port="0" to-layer="555" to-port="2" />
		<edge from-layer="555" from-port="3" to-layer="557" to-port="0" />
		<edge from-layer="556" from-port="0" to-layer="557" to-port="1" />
		<edge from-layer="557" from-port="2" to-layer="558" to-port="3" />
		<edge from-layer="558" from-port="4" to-layer="559" to-port="1" />
		<edge from-layer="559" from-port="2" to-layer="590" to-port="0" />
		<edge from-layer="560" from-port="0" to-layer="563" to-port="0" />
		<edge from-layer="561" from-port="0" to-layer="562" to-port="1" />
		<edge from-layer="562" from-port="2" to-layer="563" to-port="1" />
		<edge from-layer="563" from-port="2" to-layer="570" to-port="0" />
		<edge from-layer="564" from-port="0" to-layer="565" to-port="1" />
		<edge from-layer="565" from-port="2" to-layer="569" to-port="0" />
		<edge from-layer="566" from-port="0" to-layer="569" to-port="1" />
		<edge from-layer="567" from-port="0" to-layer="569" to-port="2" />
		<edge from-layer="568" from-port="0" to-layer="569" to-port="3" />
		<edge from-layer="569" from-port="4" to-layer="570" to-port="1" />
		<edge from-layer="570" from-port="2" to-layer="572" to-port="0" />
		<edge from-layer="571" from-port="0" to-layer="572" to-port="1" />
		<edge from-layer="572" from-port="2" to-layer="574" to-port="0" />
		<edge from-layer="573" from-port="0" to-layer="574" to-port="1" />
		<edge from-layer="574" from-port="2" to-layer="588" to-port="0" />
		<edge from-layer="575" from-port="0" to-layer="578" to-port="0" />
		<edge from-layer="576" from-port="0" to-layer="577" to-port="1" />
		<edge from-layer="577" from-port="2" to-layer="578" to-port="1" />
		<edge from-layer="578" from-port="2" to-layer="585" to-port="0" />
		<edge from-layer="579" from-port="0" to-layer="580" to-port="1" />
		<edge from-layer="580" from-port="2" to-layer="584" to-port="0" />
		<edge from-layer="581" from-port="0" to-layer="584" to-port="1" />
		<edge from-layer="582" from-port="0" to-layer="584" to-port="2" />
		<edge from-layer="583" from-port="0" to-layer="584" to-port="3" />
		<edge from-layer="584" from-port="4" to-layer="585" to-port="1" />
		<edge from-layer="585" from-port="2" to-layer="587" to-port="0" />
		<edge from-layer="586" from-port="0" to-layer="587" to-port="1" />
		<edge from-layer="587" from-port="2" to-layer="588" to-port="1" />
		<edge from-layer="588" from-port="2" to-layer="589" to-port="0" />
		<edge from-layer="588" from-port="2" to-layer="593" to-port="2" />
		<edge from-layer="589" from-port="1" to-layer="590" to-port="1" />
		<edge from-layer="590" from-port="2" to-layer="591" to-port="0" />
		<edge from-layer="591" from-port="1" to-layer="593" to-port="0" />
		<edge from-layer="592" from-port="0" to-layer="593" to-port="1" />
		<edge from-layer="593" from-port="3" to-layer="594" to-port="0" />
		<edge from-layer="594" from-port="1" to-layer="608" to-port="0" />
		<edge from-layer="595" from-port="0" to-layer="598" to-port="0" />
		<edge from-layer="596" from-port="0" to-layer="597" to-port="1" />
		<edge from-layer="597" from-port="2" to-layer="598" to-port="1" />
		<edge from-layer="598" from-port="2" to-layer="605" to-port="0" />
		<edge from-layer="599" from-port="0" to-layer="600" to-port="1" />
		<edge from-layer="600" from-port="2" to-layer="604" to-port="0" />
		<edge from-layer="601" from-port="0" to-layer="604" to-port="1" />
		<edge from-layer="602" from-port="0" to-layer="604" to-port="2" />
		<edge from-layer="603" from-port="0" to-layer="604" to-port="3" />
		<edge from-layer="604" from-port="4" to-layer="605" to-port="1" />
		<edge from-layer="605" from-port="2" to-layer="607" to-port="0" />
		<edge from-layer="606" from-port="0" to-layer="607" to-port="1" />
		<edge from-layer="607" from-port="2" to-layer="608" to-port="1" />
		<edge from-layer="608" from-port="2" to-layer="610" to-port="0" />
		<edge from-layer="609" from-port="0" to-layer="610" to-port="1" />
		<edge from-layer="610" from-port="2" to-layer="616" to-port="0" />
		<edge from-layer="611" from-port="0" to-layer="612" to-port="1" />
		<edge from-layer="612" from-port="2" to-layer="615" to-port="0" />
		<edge from-layer="613" from-port="0" to-layer="615" to-port="1" />
		<edge from-layer="614" from-port="0" to-layer="615" to-port="2" />
		<edge from-layer="615" from-port="3" to-layer="616" to-port="1" />
		<edge from-layer="616" from-port="2" to-layer="618" to-port="0" />
		<edge from-layer="617" from-port="0" to-layer="618" to-port="1" />
		<edge from-layer="618" from-port="2" to-layer="619" to-port="1" />
		<edge from-layer="619" from-port="2" to-layer="620" to-port="0" />
		<edge from-layer="620" from-port="2" to-layer="623" to-port="0" />
		<edge from-layer="620" from-port="2" to-layer="622" to-port="0" />
		<edge from-layer="621" from-port="0" to-layer="622" to-port="1" />
		<edge from-layer="622" from-port="2" to-layer="623" to-port="1" />
		<edge from-layer="623" from-port="2" to-layer="631" to-port="0" />
		<edge from-layer="623" from-port="2" to-layer="625" to-port="0" />
		<edge from-layer="624" from-port="0" to-layer="625" to-port="1" />
		<edge from-layer="625" from-port="2" to-layer="627" to-port="0" />
		<edge from-layer="626" from-port="0" to-layer="627" to-port="1" />
		<edge from-layer="627" from-port="2" to-layer="629" to-port="0" />
		<edge from-layer="628" from-port="0" to-layer="629" to-port="1" />
		<edge from-layer="629" from-port="2" to-layer="630" to-port="0" />
		<edge from-layer="630" from-port="1" to-layer="631" to-port="1" />
		<edge from-layer="631" from-port="2" to-layer="633" to-port="0" />
		<edge from-layer="632" from-port="0" to-layer="633" to-port="1" />
		<edge from-layer="633" from-port="2" to-layer="635" to-port="0" />
		<edge from-layer="634" from-port="0" to-layer="635" to-port="1" />
		<edge from-layer="635" from-port="2" to-layer="637" to-port="0" />
		<edge from-layer="635" from-port="2" to-layer="650" to-port="1" />
		<edge from-layer="636" from-port="0" to-layer="637" to-port="1" />
		<edge from-layer="637" from-port="2" to-layer="638" to-port="1" />
		<edge from-layer="638" from-port="2" to-layer="644" to-port="0" />
		<edge from-layer="638" from-port="2" to-layer="640" to-port="0" />
		<edge from-layer="639" from-port="0" to-layer="640" to-port="1" />
		<edge from-layer="640" from-port="2" to-layer="641" to-port="0" />
		<edge from-layer="641" from-port="1" to-layer="643" to-port="0" />
		<edge from-layer="642" from-port="0" to-layer="643" to-port="1" />
		<edge from-layer="643" from-port="2" to-layer="644" to-port="1" />
		<edge from-layer="644" from-port="2" to-layer="646" to-port="0" />
		<edge from-layer="645" from-port="0" to-layer="646" to-port="1" />
		<edge from-layer="646" from-port="2" to-layer="648" to-port="0" />
		<edge from-layer="647" from-port="0" to-layer="648" to-port="1" />
		<edge from-layer="648" from-port="2" to-layer="649" to-port="1" />
		<edge from-layer="649" from-port="2" to-layer="650" to-port="0" />
		<edge from-layer="650" from-port="2" to-layer="653" to-port="0" />
		<edge from-layer="650" from-port="2" to-layer="652" to-port="0" />
		<edge from-layer="651" from-port="0" to-layer="652" to-port="1" />
		<edge from-layer="652" from-port="2" to-layer="653" to-port="1" />
		<edge from-layer="653" from-port="2" to-layer="655" to-port="0" />
		<edge from-layer="653" from-port="2" to-layer="661" to-port="0" />
		<edge from-layer="654" from-port="0" to-layer="655" to-port="1" />
		<edge from-layer="655" from-port="2" to-layer="657" to-port="0" />
		<edge from-layer="656" from-port="0" to-layer="657" to-port="1" />
		<edge from-layer="657" from-port="2" to-layer="659" to-port="0" />
		<edge from-layer="658" from-port="0" to-layer="659" to-port="1" />
		<edge from-layer="659" from-port="2" to-layer="660" to-port="0" />
		<edge from-layer="660" from-port="1" to-layer="661" to-port="1" />
		<edge from-layer="661" from-port="2" to-layer="663" to-port="0" />
		<edge from-layer="662" from-port="0" to-layer="663" to-port="1" />
		<edge from-layer="663" from-port="2" to-layer="665" to-port="0" />
		<edge from-layer="664" from-port="0" to-layer="665" to-port="1" />
		<edge from-layer="665" from-port="2" to-layer="699" to-port="0" />
		<edge from-layer="665" from-port="2" to-layer="719" to-port="0" />
		<edge from-layer="665" from-port="2" to-layer="742" to-port="1" />
		<edge from-layer="665" from-port="2" to-layer="684" to-port="0" />
		<edge from-layer="665" from-port="2" to-layer="666" to-port="0" />
		<edge from-layer="665" from-port="2" to-layer="674" to-port="0" />
		<edge from-layer="666" from-port="1" to-layer="669" to-port="0" />
		<edge from-layer="667" from-port="0" to-layer="669" to-port="1" />
		<edge from-layer="668" from-port="0" to-layer="669" to-port="2" />
		<edge from-layer="669" from-port="3" to-layer="702" to-port="0" />
		<edge from-layer="669" from-port="3" to-layer="722" to-port="0" />
		<edge from-layer="669" from-port="3" to-layer="734" to-port="0" />
		<edge from-layer="669" from-port="3" to-layer="687" to-port="0" />
		<edge from-layer="669" from-port="3" to-layer="671" to-port="0" />
		<edge from-layer="670" from-port="0" to-layer="671" to-port="1" />
		<edge from-layer="671" from-port="2" to-layer="680" to-port="0" />
		<edge from-layer="672" from-port="0" to-layer="680" to-port="1" />
		<edge from-layer="673" from-port="0" to-layer="680" to-port="2" />
		<edge from-layer="674" from-port="1" to-layer="677" to-port="0" />
		<edge from-layer="675" from-port="0" to-layer="677" to-port="1" />
		<edge from-layer="676" from-port="0" to-layer="677" to-port="2" />
		<edge from-layer="677" from-port="3" to-layer="679" to-port="0" />
		<edge from-layer="678" from-port="0" to-layer="679" to-port="1" />
		<edge from-layer="679" from-port="2" to-layer="680" to-port="3" />
		<edge from-layer="680" from-port="4" to-layer="681" to-port="1" />
		<edge from-layer="681" from-port="2" to-layer="712" to-port="0" />
		<edge from-layer="682" from-port="0" to-layer="685" to-port="0" />
		<edge from-layer="683" from-port="0" to-layer="684" to-port="1" />
		<edge from-layer="684" from-port="2" to-layer="685" to-port="1" />
		<edge from-layer="685" from-port="2" to-layer="692" to-port="0" />
		<edge from-layer="686" from-port="0" to-layer="687" to-port="1" />
		<edge from-layer="687" from-port="2" to-layer="691" to-port="0" />
		<edge from-layer="688" from-port="0" to-layer="691" to-port="1" />
		<edge from-layer="689" from-port="0" to-layer="691" to-port="2" />
		<edge from-layer="690" from-port="0" to-layer="691" to-port="3" />
		<edge from-layer="691" from-port="4" to-layer="692" to-port="1" />
		<edge from-layer="692" from-port="2" to-layer="694" to-port="0" />
		<edge from-layer="693" from-port="0" to-layer="694" to-port="1" />
		<edge from-layer="694" from-port="2" to-layer="696" to-port="0" />
		<edge from-layer="695" from-port="0" to-layer="696" to-port="1" />
		<edge from-layer="696" from-port="2" to-layer="710" to-port="0" />
		<edge from-layer="697" from-port="0" to-layer="700" to-port="0" />
		<edge from-layer="698" from-port="0" to-layer="699" to-port="1" />
		<edge from-layer="699" from-port="2" to-layer="700" to-port="1" />
		<edge from-layer="700" from-port="2" to-layer="707" to-port="0" />
		<edge from-layer="701" from-port="0" to-layer="702" to-port="1" />
		<edge from-layer="702" from-port="2" to-layer="706" to-port="0" />
		<edge from-layer="703" from-port="0" to-layer="706" to-port="1" />
		<edge from-layer="704" from-port="0" to-layer="706" to-port="2" />
		<edge from-layer="705" from-port="0" to-layer="706" to-port="3" />
		<edge from-layer="706" from-port="4" to-layer="707" to-port="1" />
		<edge from-layer="707" from-port="2" to-layer="709" to-port="0" />
		<edge from-layer="708" from-port="0" to-layer="709" to-port="1" />
		<edge from-layer="709" from-port="2" to-layer="710" to-port="1" />
		<edge from-layer="710" from-port="2" to-layer="715" to-port="2" />
		<edge from-layer="710" from-port="2" to-layer="711" to-port="0" />
		<edge from-layer="711" from-port="1" to-layer="712" to-port="1" />
		<edge from-layer="712" from-port="2" to-layer="713" to-port="0" />
		<edge from-layer="713" from-port="1" to-layer="715" to-port="0" />
		<edge from-layer="714" from-port="0" to-layer="715" to-port="1" />
		<edge from-layer="715" from-port="3" to-layer="716" to-port="0" />
		<edge from-layer="716" from-port="1" to-layer="730" to-port="0" />
		<edge from-layer="717" from-port="0" to-layer="720" to-port="0" />
		<edge from-layer="718" from-port="0" to-layer="719" to-port="1" />
		<edge from-layer="719" from-port="2" to-layer="720" to-port="1" />
		<edge from-layer="720" from-port="2" to-layer="727" to-port="0" />
		<edge from-layer="721" from-port="0" to-layer="722" to-port="1" />
		<edge from-layer="722" from-port="2" to-layer="726" to-port="0" />
		<edge from-layer="723" from-port="0" to-layer="726" to-port="1" />
		<edge from-layer="724" from-port="0" to-layer="726" to-port="2" />
		<edge from-layer="725" from-port="0" to-layer="726" to-port="3" />
		<edge from-layer="726" from-port="4" to-layer="727" to-port="1" />
		<edge from-layer="727" from-port="2" to-layer="729" to-port="0" />
		<edge from-layer="728" from-port="0" to-layer="729" to-port="1" />
		<edge from-layer="729" from-port="2" to-layer="730" to-port="1" />
		<edge from-layer="730" from-port="2" to-layer="732" to-port="0" />
		<edge from-layer="731" from-port="0" to-layer="732" to-port="1" />
		<edge from-layer="732" from-port="2" to-layer="738" to-port="0" />
		<edge from-layer="733" from-port="0" to-layer="734" to-port="1" />
		<edge from-layer="734" from-port="2" to-layer="737" to-port="0" />
		<edge from-layer="735" from-port="0" to-layer="737" to-port="1" />
		<edge from-layer="736" from-port="0" to-layer="737" to-port="2" />
		<edge from-layer="737" from-port="3" to-layer="738" to-port="1" />
		<edge from-layer="738" from-port="2" to-layer="740" to-port="0" />
		<edge from-layer="739" from-port="0" to-layer="740" to-port="1" />
		<edge from-layer="740" from-port="2" to-layer="741" to-port="1" />
		<edge from-layer="741" from-port="2" to-layer="742" to-port="0" />
		<edge from-layer="742" from-port="2" to-layer="744" to-port="0" />
		<edge from-layer="742" from-port="2" to-layer="745" to-port="0" />
		<edge from-layer="743" from-port="0" to-layer="744" to-port="1" />
		<edge from-layer="744" from-port="2" to-layer="745" to-port="1" />
		<edge from-layer="745" from-port="2" to-layer="747" to-port="0" />
		<edge from-layer="745" from-port="2" to-layer="753" to-port="0" />
		<edge from-layer="746" from-port="0" to-layer="747" to-port="1" />
		<edge from-layer="747" from-port="2" to-layer="749" to-port="0" />
		<edge from-layer="748" from-port="0" to-layer="749" to-port="1" />
		<edge from-layer="749" from-port="2" to-layer="751" to-port="0" />
		<edge from-layer="750" from-port="0" to-layer="751" to-port="1" />
		<edge from-layer="751" from-port="2" to-layer="752" to-port="0" />
		<edge from-layer="752" from-port="1" to-layer="753" to-port="1" />
		<edge from-layer="753" from-port="2" to-layer="755" to-port="0" />
		<edge from-layer="754" from-port="0" to-layer="755" to-port="1" />
		<edge from-layer="755" from-port="2" to-layer="757" to-port="0" />
		<edge from-layer="756" from-port="0" to-layer="757" to-port="1" />
		<edge from-layer="757" from-port="2" to-layer="759" to-port="0" />
		<edge from-layer="757" from-port="2" to-layer="772" to-port="1" />
		<edge from-layer="758" from-port="0" to-layer="759" to-port="1" />
		<edge from-layer="759" from-port="2" to-layer="760" to-port="1" />
		<edge from-layer="760" from-port="2" to-layer="762" to-port="0" />
		<edge from-layer="760" from-port="2" to-layer="766" to-port="0" />
		<edge from-layer="761" from-port="0" to-layer="762" to-port="1" />
		<edge from-layer="762" from-port="2" to-layer="763" to-port="0" />
		<edge from-layer="763" from-port="1" to-layer="765" to-port="0" />
		<edge from-layer="764" from-port="0" to-layer="765" to-port="1" />
		<edge from-layer="765" from-port="2" to-layer="766" to-port="1" />
		<edge from-layer="766" from-port="2" to-layer="768" to-port="0" />
		<edge from-layer="767" from-port="0" to-layer="768" to-port="1" />
		<edge from-layer="768" from-port="2" to-layer="770" to-port="0" />
		<edge from-layer="769" from-port="0" to-layer="770" to-port="1" />
		<edge from-layer="770" from-port="2" to-layer="771" to-port="1" />
		<edge from-layer="771" from-port="2" to-layer="772" to-port="0" />
		<edge from-layer="772" from-port="2" to-layer="774" to-port="0" />
		<edge from-layer="772" from-port="2" to-layer="775" to-port="0" />
		<edge from-layer="773" from-port="0" to-layer="774" to-port="1" />
		<edge from-layer="774" from-port="2" to-layer="775" to-port="1" />
		<edge from-layer="775" from-port="2" to-layer="783" to-port="0" />
		<edge from-layer="775" from-port="2" to-layer="777" to-port="0" />
		<edge from-layer="776" from-port="0" to-layer="777" to-port="1" />
		<edge from-layer="777" from-port="2" to-layer="779" to-port="0" />
		<edge from-layer="778" from-port="0" to-layer="779" to-port="1" />
		<edge from-layer="779" from-port="2" to-layer="781" to-port="0" />
		<edge from-layer="780" from-port="0" to-layer="781" to-port="1" />
		<edge from-layer="781" from-port="2" to-layer="782" to-port="0" />
		<edge from-layer="782" from-port="1" to-layer="783" to-port="1" />
		<edge from-layer="783" from-port="2" to-layer="785" to-port="0" />
		<edge from-layer="784" from-port="0" to-layer="785" to-port="1" />
		<edge from-layer="785" from-port="2" to-layer="787" to-port="0" />
		<edge from-layer="786" from-port="0" to-layer="787" to-port="1" />
		<edge from-layer="787" from-port="2" to-layer="789" to-port="0" />
		<edge from-layer="788" from-port="0" to-layer="789" to-port="1" />
		<edge from-layer="789" from-port="2" to-layer="790" to-port="1" />
		<edge from-layer="790" from-port="2" to-layer="793" to-port="0" />
		<edge from-layer="791" from-port="0" to-layer="793" to-port="1" />
		<edge from-layer="792" from-port="0" to-layer="793" to-port="2" />
		<edge from-layer="793" from-port="4" to-layer="795" to-port="0" />
		<edge from-layer="793" from-port="3" to-layer="798" to-port="0" />
		<edge from-layer="794" from-port="0" to-layer="795" to-port="1" />
		<edge from-layer="795" from-port="2" to-layer="796" to-port="0" />
		<edge from-layer="797" from-port="0" to-layer="798" to-port="1" />
		<edge from-layer="798" from-port="2" to-layer="799" to-port="0" />
	</edges>
	<rt_info />
</net>
